…
    mirror: true
    mean_value: 104
    mean_value: 117
    mean_value: 123
  }
  image_data_param {
    source: "../../train_img.txt"
    batch_size: 30
    shuffle: false
    new_height: 324
    new_width: 324
  }
}
layer {
  name: "labeldata"
  type: "ImageData"
  top: "label"
  top: "fakelabel2"
  include {
    phase: TRAIN
  }
  transform_param {
    scale: 0.0039215684
    mirror: true
  }
  image_data_param {
    source: "../../train_label.txt"
    batch_size: 30
    shuffle: false
    new_height: 324
    new_width: 324
    is_color: false
  }
}
layer {
  name: "labelthreshold"
  type: "Threshold"
  bottom: "label"
  top: "label"
  threshold_param {
    threshold: 0.5
  }
}
layer {
  name: "silence"
  type: "Silence"
  bottom: "fakelabel"
  bottom: "fakelabel2"
}
layer {
  name: "genslic"
  type: "GenSlicinfo"
  bottom: "data"
  top: "slic"
  top: "deadmap"
  gen_slicinfo_param {
    image_size: 324
    slic_size: 18
    coh_weight: 1.4
    cielab: true
    min_pixel_num: 100
  }
}
layer {
  name: "initial_low"
  type: "LowlevelDistance"
  bottom: "data"
  bottom: "slic"
  bottom: "deadmap"
  bottom: "label"
  top: "region_features"
  top: "region_labels"
  include {
    phase: TRAIN
  }
  lowlevel_distance_param {
    grid_size: 20
    train_region_per_image: 50
    spixel_size: 18
    feature_option: 3
  }
}
layer {
  name: "low_conv1"
  type: "Convolution"
  bottom: "region_features"
  top: "region_conv1"
  param {
    lr_mult: 1
    decay_mult: 1
  }
  param {
    lr_mult: 2
    decay_mult: 0
  }
  convolution_param {
    num_output: 100
    pad: 0
    kernel_size: 1
    weight_filler {
      type: "xavier"
    }
    bias_filler {
      type: "constant"
      value: 0.1
    }
  }
}
layer {
  name: "low_bn1"
  type: "BatchNorm"
  bottom: "region_conv1"
  top: "region_conv1"
  param {
    lr_mult: 0
  }
  param {
    lr_mult: 0
  }
  param {
    lr_mult: 0
  }
}
layer {
  name: "low_relu1"
  type: "ReLU"
  bottom: "region_conv1"
  top: "region_conv1"
}
layer {
  name: "low_conv2"
  type: "Convolution"
  bottom: "region_conv1"
  top: "region_conv2"
  param {
    lr_mult: 1
    decay_mult: 1
  }
  param {
    lr_mult: 2
    decay_mult: 0
  }
  convolution_param {
    num_output: 100
    pad: 0
    kernel_size: 1
    weight_filler {
      type: "xavier"
    }
    bias_filler {
      type: "constant"
      value: 0.1
    }
  }
}
layer {
  name: "low_bn2"
  type: "BatchNorm"
  bottom: "region_conv2"
  top: "region_conv2"
  param {
    lr_mult: 0
  }
  param {
    lr_mult: 0
  }
  param {
    lr_mult: 0
  }
}
layer {
  name: "low_relu2"
  type: "ReLU"
  bottom: "region_conv2"
  top: "region_conv2"
}
layer {
  name: "low_conv3"
  type: "Convolution"
  bottom: "region_conv2"
  top: "region_conv3"
  param {
    lr_mult: 1
    decay_mult: 1
  }
  param {
    lr_mult: 2
    decay_mult: 0
  }
  convolution_param {
    num_output: 3
    pad: 0
    kernel_size: 1
    weight_filler {
      type: "xavier"
    }
    bias_filler {
      type: "constant"
      value: 0.1
    }
  }
}
layer {
  name: "low_bn3"
  type: "BatchNorm"
  bottom: "region_conv3"
  top: "region_conv3"
  param {
    lr_mult: 0
  }
  param {
    lr_mult: 0
  }
  param {
    lr_mult: 0
  }
}
layer {
  name: "low_relu3"
  type: "ReLU"
  bottom: "region_conv3"
  top: "region_conv3"
}
layer {
  name: "conv1/7x7_s2"
  type: "Convolution"
  bottom: "data"
  top: "conv1/7x7_s2"
  param {
    lr_mult: 1
    decay_mult: 1
  }
  param {
    lr_mult: 2
    decay_mult: 0
  }
  convolution_param {
    num_output: 64
    pad: 3
    kernel_size: 7
    stride: 2
    weight_filler {
      type: "xavier"
    }
    bias_filler {
      type: "constant"
      value: 0.2
    }
  }
}
layer {
  name: "conv1/relu_7x7"
  type: "ReLU"
  bottom: "conv1/7x7_s2"
  top: "conv1/7x7_s2"
}
layer {
  name: "pool1/3x3_s2"
  type: "Pooling"
  bottom: "conv1/7x7_s2"
  top: "pool1/3x3_s2"
  pooling_param {
    pool: MAX
    kernel_size: 3
    stride: 2
  }
}
layer {
  name: "pool1/norm1"
  type: "LRN"
  bottom: "pool1/3x3_s2"
  top: "pool1/norm1"
  lrn_param {
    local_size: 5
    alpha: 0.0001
    beta: 0.75
  }
}
layer {
  name: "conv2/3x3_reduce"
  type: "Convolution"
  bottom: "pool1/norm1"
  top: "conv2/3x3_reduce"
  param {
    lr_mult: 1
    decay_mult: 1
  }
  param {
    lr_mult: 2
    decay_mult: 0
  }
  convolution_param {
    num_output: 64
    kernel_size: 1
    weight_filler {
      type: "xavier"
    }
    bias_filler {
      type: "constant"
      value: 0.2
    }
  }
}
layer {
  name: "conv2/relu_3x3_reduce"
  type: "ReLU"
  bottom: "conv2/3x3_reduce"
  top: "conv2/3x3_reduce"
}
layer {
  name: "conv2/3x3"
  type: "Convolution"
  bottom: "conv2/3x3_reduce"
  top: "conv2/3x3"
  param {
    lr_mult: 1
    decay_mult: 1
  }
  param {
    lr_mult: 2
    decay_mult: 0
  }
  convolution_param {
    num_output: 192
    pad: 1
    kernel_size: 3
    weight_filler {
      type: "xavier"
    }
    bias_filler {
      type: "constant"
      value: 0.2
    }
  }
}
layer {
  name: "conv2/relu_3x3"
  type: "ReLU"
  bottom: "conv2/3x3"
  top: "conv2/3x3"
}
layer {
  name: "conv2/norm2"
  type: "LRN"
  bottom: "conv2/3x3"
  top: "conv2/norm2"
  lrn_param {
    local_size: 5
    alpha: 0.0001
    beta: 0.75
  }
}
layer {
  name: "pool2/3x3_s2"
  type: "Pooling"
  bottom: "conv2/norm2"
  top: "pool2/3x3_s2"
  pooling_param {
    pool: MAX
    kernel_size: 3
    stride: 2
  }
}
layer {
  name: "inception_3a/1x1"
  type: "Convolution"
  bottom: "pool2/3x3_s2"
  top: "inception_3a/1x1"
  param {
    lr_mult: 1
    decay_mult: 1
  }
  param {
    lr_mult: 2
    decay_mult: 0
  }
  convolution_param {
    num_output: 64
    kernel_size: 1
    weight_filler {
      type: "xavier"
    }
    bias_filler {
      type: "constant"
      value: 0.2
    }
  }
}
layer {
  name: "inception_3a/relu_1x1"
  type: "ReLU"
  bottom: "inception_3a/1x1"
  top: "inception_3a/1x1"
}
layer {
  name: "inception_3a/3x3_reduce"
  type: "Convolution"
  bottom: "pool2/3x3_s2"
  top: "inception_3a/3x3_reduce"
  param {
    lr_mult: 1
    decay_mult: 1
  }
  param {
    lr_mult: 2
    decay_mult: 0
  }
  convolution_param {
    num_output: 96
    kernel_size: 1
    weight_filler {
      type: "xavier"
    }
    bias_filler {
      type: "constant"
      value: 0.2
    }
  }
}
layer {
  name: "inception_3a/relu_3x3_reduce"
  type: "ReLU"
  bottom: "inception_3a/3x3_reduce"
  top: "inception_3a/3x3_reduce"
}
layer {
  name: "inception_3a/3x3"
  type: "Convolution"
  bottom: "inception_3a/3x3_reduce"
  top: "inception_3a/3x3"
  param {
    lr_mult: 1
    decay_mult: 1
  }
  param {
    lr_mult: 2
    decay_mult: 0
  }
  convolution_param {
    num_output: 128
    pad: 1
    kernel_size: 3
    weight_filler {
      type: "xavier"
    }
    bias_filler {
      type: "constant"
      value: 0.2
    }
  }
}
layer {
  name: "inception_3a/relu_3x3"
  type: "ReLU"
  bottom: "inception_3a/3x3"
  top: "inception_3a/3x3"
}
layer {
  name: "inception_3a/5x5_reduce"
  type: "Convolution"
  bottom: "pool2/3x3_s2"
  top: "inception_3a/5x5_reduce"
  param {
    lr_mult: 1
    decay_mult: 1
  }
  param {
    lr_mult: 2
    decay_mult: 0
  }
  convolution_param {
    num_output: 16
    kernel_size: 1
    weight_filler {
      type: "xavier"
    }
    bias_filler {
      type: "constant"
      value: 0.2
    }
  }
}
layer {
  name: "inception_3a/relu_5x5_reduce"
  type: "ReLU"
  bottom: "inception_3a/5x5_reduce"
  top: "inception_3a/5x5_reduce"
}
layer {
  name: "inception_3a/5x5"
  type: "Convolution"
  bottom: "inception_3a/5x5_reduce"
  top: "inception_3a/5x5"
  param {
    lr_mult: 1
    decay_mult: 1
  }
  param {
    lr_mult: 2
    decay_mult: 0
  }
  convolution_param {
    num_output: 32
    pad: 2
    kernel_size: 5
    weight_filler {
      type: "xavier"
    }
    bias_filler {
      type: "constant"
      value: 0.2
    }
  }
}
layer {
  name: "inception_3a/relu_5x5"
  type: "ReLU"
  bottom: "inception_3a/5x5"
  top: "inception_3a/5x5"
}
layer {
  name: "inception_3a/pool"
  type: "Pooling"
  bottom: "pool2/3x3_s2"
  top: "inception_3a/pool"
  pooling_param {
    pool: MAX
    kernel_size: 3
    stride: 1
    pad: 1
  }
}
layer {
  name: "inception_3a/pool_proj"
  type: "Convolution"
  bottom: "inception_3a/pool"
  top: "inception_3a/pool_proj"
  param {
    lr_mult: 1
    decay_mult: 1
  }
  param {
    lr_mult: 2
    decay_mult: 0
  }
  convolution_param {
    num_output: 32
    kernel_size: 1
    weight_filler {
      type: "xavier"
    }
    bias_filler {
      type: "constant"
      value: 0.2
    }
  }
}
layer {
  name: "inception_3a/relu_pool_proj"
  type: "ReLU"
  bottom: "inception_3a/pool_proj"
  top: "inception_3a/pool_proj"
}
layer {
  name: "inception_3a/output"
  type: "Concat"
  bottom: "inception_3a/1x1"
  bottom: "inception_3a/3x3"
  bottom: "inception_3a/5x5"
  bottom: "inception_3a/pool_proj"
  top: "inception_3a/output"
}
layer {
  name: "inception_3b/1x1"
  type: "Convolution"
  bottom: "inception_3a/output"
  top: "inception_3b/1x1"
  param {
    lr_mult: 1
    decay_mult: 1
  }
  param {
    lr_mult: 2
    decay_mult: 0
  }
  convolution_param {
    num_output: 128
    kernel_size: 1
    weight_filler {
      type: "xavier"
    }
    bias_filler {
      type: "constant"
      value: 0.2
    }
  }
}
layer {
  name: "inception_3b/relu_1x1"
  type: "ReLU"
  bottom: "inception_3b/1x1"
  top: "inception_3b/1x1"
}
layer {
  name: "inception_3b/3x3_reduce"
  type: "Convolution"
  bottom: "inception_3a/output"
  top: "inception_3b/3x3_reduce"
  param {
    lr_mult: 1
    decay_mult: 1
  }
  param {
    lr_mult: 2
    decay_mult: 0
  }
  convolution_param {
    num_output: 128
    kernel_size: 1
    weight_filler {
      type: "xavier"
    }
    bias_filler {
      type: "constant"
      value: 0.2
    }
  }
}
layer {
  name: "inception_3b/relu_3x3_reduce"
  type: "ReLU"
  bottom: "inception_3b/3x3_reduce"
  top: "inception_3b/3x3_reduce"
}
layer {
  name: "inception_3b/3x3"
  type: "Convolution"
  bottom: "inception_3b/3x3_reduce"
  top: "inception_3b/3x3"
  param {
    lr_mult: 1
    decay_mult: 1
  }
  param {
    lr_mult: 2
    decay_mult: 0
  }
  convolution_param {
    num_output: 192
    pad: 1
    kernel_size: 3
    weight_filler {
      type: "xavier"
    }
    bias_filler {
      type: "constant"
      value: 0.2
    }
  }
}
layer {
  name: "inception_3b/relu_3x3"
  type: "ReLU"
  bottom: "inception_3b/3x3"
  top: "inception_3b/3x3"
}
layer {
  name: "inception_3b/5x5_reduce"
  type: "Convolution"
  bottom: "inception_3a/output"
  top: "inception_3b/5x5_reduce"
  param {
    lr_mult: 1
    decay_mult: 1
  }
  param {
    lr_mult: 2
    decay_mult: 0
  }
  convolution_param {
    num_output: 32
    kernel_size: 1
    weight_filler {
      type: "xavier"
    }
    bias_filler {
      type: "constant"
      value: 0.2
    }
  }
}
layer {
  name: "inception_3b/relu_5x5_reduce"
  type: "ReLU"
  bottom: "inception_3b/5x5_reduce"
  top: "inception_3b/5x5_reduce"
}
layer {
  name: "inception_3b/5x5"
  type: "Convolution"
  bottom: "inception_3b/5x5_reduce"
  top: "inception_3b/5x5"
  param {
    lr_mult: 1
    decay_mult: 1
  }
  param {
    lr_mult: 2
    decay_mult: 0
  }
  convolution_param {
    num_output: 96
    pad: 2
    kernel_size: 5
    weight_filler {
      type: "xavier"
    }
    bias_filler {
      type: "constant"
      value: 0.2
    }
  }
}
layer {
  name: "inception_3b/relu_5x5"
  type: "ReLU"
  bottom: "inception_3b/5x5"
  top: "inception_3b/5x5"
}
layer {
  name: "inception_3b/pool"
  type: "Pooling"
  bottom: "inception_3a/output"
  top: "inception_3b/pool"
  pooling_param {
    pool: MAX
    kernel_size: 3
    stride: 1
    pad: 1
  }
}
layer {
  name: "inception_3b/pool_proj"
  type: "Convolution"
  bottom: "inception_3b/pool"
  top: "inception_3b/pool_proj"
  param {
    lr_mult: 1
    decay_mult: 1
  }
  param {
    lr_mult: 2
    decay_mult: 0
  }
  convolution_param {
    num_output: 64
    kernel_size: 1
    weight_filler {
      type: "xavier"
    }
    bias_filler {
      type: "constant"
      value: 0.2
    }
  }
}
layer {
  name: "inception_3b/relu_pool_proj"
  type: "ReLU"
  bottom: "inception_3b/pool_proj"
  top: "inception_3b/pool_proj"
}
layer {
  name: "inception_3b/output"
  type: "Concat"
  bottom: "inception_3b/1x1"
  bottom: "inception_3b/3x3"
  bottom: "inception_3b/5x5"
  bottom: "inception_3b/pool_proj"
  top: "inception_3b/output"
}
layer {
  name: "pool3/3x3_s2"
  type: "Pooling"
  bottom: "inception_3b/output"
  top: "pool3/3x3_s2"
  pooling_param {
    pool: MAX
    kernel_size: 3
    stride: 2
  }
}
layer {
  name: "inception_4a/1x1"
  type: "Convolution"
  bottom: "pool3/3x3_s2"
  top: "inception_4a/1x1"
  param {
    lr_mult: 1
    decay_mult: 1
  }
  param {
    lr_mult: 2
    decay_mult: 0
  }
  convolution_param {
    num_output: 192
    kernel_size: 1
    weight_filler {
      type: "xavier"
    }
    bias_filler {
      type: "constant"
      value: 0.2
    }
  }
}
layer {
  name: "inception_4a/relu_1x1"
  type: "ReLU"
  bottom: "inception_4a/1x1"
  top: "inception_4a/1x1"
}
layer {
  name: "inception_4a/3x3_reduce"
  type: "Convolution"
  bottom: "pool3/3x3_s2"
  top: "inception_4a/3x3_reduce"
  param {
    lr_mult: 1
    decay_mult: 1
  }
  param {
    lr_mult: 2
    decay_mult: 0
  }
  convolution_param {
    num_output: 96
    kernel_size: 1
    weight_filler {
      type: "xavier"
    }
    bias_filler {
      type: "constant"
      value: 0.2
    }
  }
}
layer {
  name: "inception_4a/relu_3x3_reduce"
  type: "ReLU"
  bottom: "inception_4a/3x3_reduce"
  top: "inception_4a/3x3_reduce"
}
layer {
  name: "inception_4a/3x3"
  type: "Convolution"
  bottom: "inception_4a/3x3_reduce"
  top: "inception_4a/3x3"
  param {
    lr_mult: 1
    decay_mult: 1
  }
  param {
    lr_mult: 2
    decay_mult: 0
  }
  convolution_param {
    num_output: 208
    pad: 1
    kernel_size: 3
    weight_filler {
      type: "xavier"
    }
    bias_filler {
      type: "constant"
      value: 0.2
    }
  }
}
layer {
  name: "inception_4a/relu_3x3"
  type: "ReLU"
  bottom: "inception_4a/3x3"
  top: "inception_4a/3x3"
}
layer {
  name: "inception_4a/5x5_reduce"
  type: "Convolution"
  bottom: "pool3/3x3_s2"
  top: "inception_4a/5x5_reduce"
  param {
    lr_mult: 1
    decay_mult: 1
  }
  param {
    lr_mult: 2
    decay_mult: 0
  }
  convolution_param {
    num_output: 16
    kernel_size: 1
    weight_filler {
      type: "xavier"
    }
    bias_filler {
      type: "constant"
      value: 0.2
    }
  }
}
layer {
  name: "inception_4a/relu_5x5_reduce"
  type: "ReLU"
  bottom: "inception_4a/5x5_reduce"
  top: "inception_4a/5x5_reduce"
}
layer {
  name: "inception_4a/5x5"
  type: "Convolution"
  bottom: "inception_4a/5x5_reduce"
  top: "inception_4a/5x5"
  param {
    lr_mult: 1
    decay_mult: 1
  }
  param {
    lr_mult: 2
    decay_mult: 0
  }
  convolution_param {
    num_output: 48
    pad: 2
    kernel_size: 5
    weight_filler {
      type: "xavier"
    }
    bias_filler {
      type: "constant"
      value: 0.2
    }
  }
}
layer {
  name: "inception_4a/relu_5x5"
  type: "ReLU"
  bottom: "inception_4a/5x5"
  top: "inception_4a/5x5"
}
layer {
  name: "inception_4a/pool"
  type: "Pooling"
  bottom: "pool3/3x3_s2"
  top: "inception_4a/pool"
  pooling_param {
    pool: MAX
    kernel_size: 3
    stride: 1
    pad: 1
  }
}
layer {
  name: "inception_4a/pool_proj"
  type: "Convolution"
  bottom: "inception_4a/pool"
  top: "inception_4a/pool_proj"
  param {
    lr_mult: 1
    decay_mult: 1
  }
  param {
    lr_mult: 2
    decay_mult: 0
  }
  convolution_param {
    num_output: 64
    kernel_size: 1
    weight_filler {
      type: "xavier"
    }
    bias_filler {
      type: "constant"
      value: 0.2
    }
  }
}
layer {
  name: "inception_4a/relu_pool_proj"
  type: "ReLU"
  bottom: "inception_4a/pool_proj"
  top: "inception_4a/pool_proj"
}
layer {
  name: "inception_4a/output"
  type: "Concat"
  bottom: "inception_4a/1x1"
  bottom: "inception_4a/3x3"
  bottom: "inception_4a/5x5"
  bottom: "inception_4a/pool_proj"
  top: "inception_4a/output"
}
layer {
  name: "inception_4b/1x1"
  type: "Convolution"
  bottom: "inception_4a/output"
  top: "inception_4b/1x1"
  param {
    lr_mult: 1
    decay_mult: 1
  }
  param {
    lr_mult: 2
    decay_mult: 0
  }
  convolution_param {
    num_output: 160
    kernel_size: 1
    weight_filler {
      type: "xavier"
    }
    bias_filler {
      type: "constant"
      value: 0.2
    }
  }
}
layer {
  name: "inception_4b/relu_1x1"
  type: "ReLU"
  bottom: "inception_4b/1x1"
  top: "inception_4b/1x1"
}
layer {
  name: "inception_4b/3x3_reduce"
  type: "Convolution"
  bottom: "inception_4a/output"
  top: "inception_4b/3x3_reduce"
  param {
    lr_mult: 1
    decay_mult: 1
  }
  param {
    lr_mult: 2
    decay_mult: 0
  }
  convolution_param {
    num_output: 112
    kernel_size: 1
    weight_filler {
      type: "xavier"
    }
    bias_filler {
      type: "constant"
      value: 0.2
    }
  }
}
layer {
  name: "inception_4b/relu_3x3_reduce"
  type: "ReLU"
  bottom: "inception_4b/3x3_reduce"
  top: "inception_4b/3x3_reduce"
}
layer {
  name: "inception_4b/3x3"
  type: "Convolution"
  bottom: "inception_4b/3x3_reduce"
  top: "inception_4b/3x3"
  param {
    lr_mult: 1
    decay_mult: 1
  }
  param {
    lr_mult: 2
    decay_mult: 0
  }
  convolution_param {
    num_output: 224
    pad: 1
    kernel_size: 3
    weight_filler {
      type: "xavier"
    }
    bias_filler {
      type: "constant"
      value: 0.2
    }
  }
}
layer {
  name: "inception_4b/relu_3x3"
  type: "ReLU"
  bottom: "inception_4b/3x3"
  top: "inception_4b/3x3"
}
layer {
  name: "inception_4b/5x5_reduce"
  type: "Convolution"
  bottom: "inception_4a/output"
  top: "inception_4b/5x5_reduce"
  param {
    lr_mult: 1
    decay_mult: 1
  }
  param {
    lr_mult: 2
    decay_mult: 0
  }
  convolution_param {
    num_output: 24
    kernel_size: 1
    weight_filler {
      type: "xavier"
    }
    bias_filler {
      type: "constant"
      value: 0.2
    }
  }
}
layer {
  name: "inception_4b/relu_5x5_reduce"
  type: "ReLU"
  bottom: "inception_4b/5x5_reduce"
  top: "inception_4b/5x5_reduce"
}
layer {
  name: "inception_4b/5x5"
  type: "Convolution"
  bottom: "inception_4b/5x5_reduce"
  top: "inception_4b/5x5"
  param {
    lr_mult: 1
    decay_mult: 1
  }
  param {
    lr_mult: 2
    decay_mult: 0
  }
  convolution_param {
    num_output: 64
    pad: 2
    kernel_size: 5
    weight_filler {
      type: "xavier"
    }
    bias_filler {
      type: "constant"
      value: 0.2
    }
  }
}
layer {
  name: "inception_4b/relu_5x5"
  type: "ReLU"
  bottom: "inception_4b/5x5"
  top: "inception_4b/5x5"
}
layer {
  name: "inception_4b/pool"
  type: "Pooling"
  bottom: "inception_4a/output"
  top: "inception_4b/pool"
  pooling_param {
    pool: MAX
    kernel_size: 3
    stride: 1
    pad: 1
  }
}
layer {
  name: "inception_4b/pool_proj"
  type: "Convolution"
  bottom: "inception_4b/pool"
  top: "inception_4b/pool_proj"
  param {
    lr_mult: 1
    decay_mult: 1
  }
  param {
    lr_mult: 2
    decay_mult: 0
  }
  convolution_param {
    num_output: 64
    kernel_size: 1
    weight_filler {
      type: "xavier"
    }
    bias_filler {
      type: "constant"
      value: 0.2
    }
  }
}
layer {
  name: "inception_4b/relu_pool_proj"
  type: "ReLU"
  bottom: "inception_4b/pool_proj"
  top: "inception_4b/pool_proj"
}
layer {
  name: "inception_4b/output"
  type: "Concat"
  bottom: "inception_4b/1x1"
  bottom: "inception_4b/3x3"
  bottom: "inception_4b/5x5"
  bottom: "inception_4b/pool_proj"
  top: "inception_4b/output"
}
layer {
  name: "inception_4c/1x1"
  type: "Convolution"
  bottom: "inception_4b/output"
  top: "inception_4c/1x1"
  param {
    lr_mult: 1
    decay_mult: 1
  }
  param {
    lr_mult: 2
    decay_mult: 0
  }
  convolution_param {
    num_output: 128
    kernel_size: 1
    weight_filler {
      type: "xavier"
    }
    bias_filler {
      type: "constant"
      value: 0.2
    }
  }
}
layer {
  name: "inception_4c/relu_1x1"
  type: "ReLU"
  bottom: "inception_4c/1x1"
  top: "inception_4c/1x1"
}
layer {
  name: "inception_4c/3x3_reduce"
  type: "Convolution"
  bottom: "inception_4b/output"
  top: "inception_4c/3x3_reduce"
  param {
    lr_mult: 1
    decay_mult: 1
  }
  param {
    lr_mult: 2
    decay_mult: 0
  }
  convolution_param {
    num_output: 128
    kernel_size: 1
    weight_filler {
      type: "xavier"
    }
    bias_filler {
      type: "constant"
      value: 0.2
    }
  }
}
layer {
  name: "inception_4c/relu_3x3_reduce"
  type: "ReLU"
  bottom: "inception_4c/3x3_reduce"
  top: "inception_4c/3x3_reduce"
}
layer {
  name: "inception_4c/3x3"
  type: "Convolution"
  bottom: "inception_4c/3x3_reduce"
  top: "inception_4c/3x3"
  param {
    lr_mult: 1
    decay_mult: 1
  }
  param {
    lr_mult: 2
    decay_mult: 0
  }
  convolution_param {
    num_output: 256
    pad: 1
    kernel_size: 3
    weight_filler {
      type: "xavier"
    }
    bias_filler {
      type: "constant"
      value: 0.2
    }
  }
}
layer {
  name: "inception_4c/relu_3x3"
  type: "ReLU"
  bottom: "inception_4c/3x3"
  top: "inception_4c/3x3"
}
layer {
  name: "inception_4c/5x5_reduce"
  type: "Convolution"
  bottom: "inception_4b/output"
  top: "inception_4c/5x5_reduce"
  param {
    lr_mult: 1
    decay_mult: 1
  }
  param {
    lr_mult: 2
    decay_mult: 0
  }
  convolution_param {
    num_output: 24
    kernel_size: 1
    weight_filler {
      type: "xavier"
    }
    bias_filler {
      type: "constant"
      value: 0.2
    }
  }
}
layer {
  name: "inception_4c/relu_5x5_reduce"
  type: "ReLU"
  bottom: "inception_4c/5x5_reduce"
  top: "inception_4c/5x5_reduce"
}
layer {
  name: "inception_4c/5x5"
  type: "Convolution"
  bottom: "inception_4c/5x5_reduce"
  top: "inception_4c/5x5"
  param {
    lr_mult: 1
    decay_mult: 1
  }
  param {
    lr_mult: 2
    decay_mult: 0
  }
  convolution_param {
    num_output: 64
    pad: 2
    kernel_size: 5
    weight_filler {
      type: "xavier"
    }
    bias_filler {
      type: "constant"
      value: 0.2
    }
  }
}
layer {
  name: "inception_4c/relu_5x5"
  type: "ReLU"
  bottom: "inception_4c/5x5"
  top: "inception_4c/5x5"
}
layer {
  name: "inception_4c/pool"
  type: "Pooling"
  bottom: "inception_4b/output"
  top: "inception_4c/pool"
  pooling_param {
    pool: MAX
    kernel_size: 3
    stride: 1
    pad: 1
  }
}
layer {
  name: "inception_4c/pool_proj"
  type: "Convolution"
  bottom: "inception_4c/pool"
  top: "inception_4c/pool_proj"
  param {
    lr_mult: 1
    decay_mult: 1
  }
  param {
    lr_mult: 2
    decay_mult: 0
  }
  convolution_param {
    num_output: 64
    kernel_size: 1
    weight_filler {
      type: "xavier"
    }
    bias_filler {
      type: "constant"
      value: 0.2
    }
  }
}
layer {
  name: "inception_4c/relu_pool_proj"
  type: "ReLU"
  bottom: "inception_4c/pool_proj"
  top: "inception_4c/pool_proj"
}
layer {
  name: "inception_4c/output"
  type: "Concat"
  bottom: "inception_4c/1x1"
  bottom: "inception_4c/3x3"
  bottom: "inception_4c/5x5"
  bottom: "inception_4c/pool_proj"
  top: "inception_4c/output"
}
layer {
  name: "inception_4d/1x1"
  type: "Convolution"
  bottom: "inception_4c/output"
  top: "inception_4d/1x1"
  param {
    lr_mult: 1
    decay_mult: 1
  }
  param {
    lr_mult: 2
    decay_mult: 0
  }
  convolution_param {
    num_output: 112
    kernel_size: 1
    weight_filler {
      type: "xavier"
    }
    bias_filler {
      type: "constant"
      value: 0.2
    }
  }
}
layer {
  name: "inception_4d/relu_1x1"
  type: "ReLU"
  bottom: "inception_4d/1x1"
  top: "inception_4d/1x1"
}
layer {
  name: "inception_4d/3x3_reduce"
  type: "Convolution"
  bottom: "inception_4c/output"
  top: "inception_4d/3x3_reduce"
  param {
    lr_mult: 1
    decay_mult: 1
  }
  param {
    lr_mult: 2
    decay_mult: 0
  }
  convolution_param {
    num_output: 144
    kernel_size: 1
    weight_filler {
      type: "xavier"
    }
    bias_filler {
      type: "constant"
      value: 0.2
    }
  }
}
layer {
  name: "inception_4d/relu_3x3_reduce"
  type: "ReLU"
  bottom: "inception_4d/3x3_reduce"
  top: "inception_4d/3x3_reduce"
}
layer {
  name: "inception_4d/3x3"
  type: "Convolution"
  bottom: "inception_4d/3x3_reduce"
  top: "inception_4d/3x3"
  param {
    lr_mult: 1
    decay_mult: 1
  }
  param {
    lr_mult: 2
    decay_mult: 0
  }
  convolution_param {
    num_output: 288
    pad: 1
    kernel_size: 3
    weight_filler {
      type: "xavier"
    }
    bias_filler {
      type: "constant"
      value: 0.2
    }
  }
}
layer {
  name: "inception_4d/relu_3x3"
  type: "ReLU"
  bottom: "inception_4d/3x3"
  top: "inception_4d/3x3"
}
layer {
  name: "inception_4d/5x5_reduce"
  type: "Convolution"
  bottom: "inception_4c/output"
  top: "inception_4d/5x5_reduce"
  param {
    lr_mult: 1
    decay_mult: 1
  }
  param {
    lr_mult: 2
    decay_mult: 0
  }
  convolution_param {
    num_output: 32
    kernel_size: 1
    weight_filler {
      type: "xavier"
    }
    bias_filler {
      type: "constant"
      value: 0.2
    }
  }
}
layer {
  name: "inception_4d/relu_5x5_reduce"
  type: "ReLU"
  bottom: "inception_4d/5x5_reduce"
  top: "inception_4d/5x5_reduce"
}
layer {
  name: "inception_4d/5x5"
  type: "Convolution"
  bottom: "inception_4d/5x5_reduce"
  top: "inception_4d/5x5"
  param {
    lr_mult: 1
    decay_mult: 1
  }
  param {
    lr_mult: 2
    decay_mult: 0
  }
  convolution_param {
    num_output: 64
    pad: 2
    kernel_size: 5
    weight_filler {
      type: "xavier"
    }
    bias_filler {
      type: "constant"
      value: 0.2
    }
  }
}
layer {
  name: "inception_4d/relu_5x5"
  type: "ReLU"
  bottom: "inception_4d/5x5"
  top: "inception_4d/5x5"
}
layer {
  name: "inception_4d/pool"
  type: "Pooling"
  bottom: "inception_4c/output"
  top: "inception_4d/pool"
  pooling_param {
    pool: MAX
    kernel_size: 3
    stride: 1
    pad: 1
  }
}
layer {
  name: "inception_4d/pool_proj"
  type: "Convolution"
  bottom: "inception_4d/pool"
  top: "inception_4d/pool_proj"
  param {
    lr_mult: 1
    decay_mult: 1
  }
  param {
    lr_mult: 2
    decay_mult: 0
  }
  convolution_param {
    num_output: 64
    kernel_size: 1
    weight_filler {
      type: "xavier"
    }
    bias_filler {
      type: "constant"
      value: 0.2
    }
  }
}
layer {
  name: "inception_4d/relu_pool_proj"
  type: "ReLU"
  bottom: "inception_4d/pool_proj"
  top: "inception_4d/pool_proj"
}
layer {
  name: "inception_4d/output"
  type: "Concat"
  bottom: "inception_4d/1x1"
  bottom: "inception_4d/3x3"
  bottom: "inception_4d/5x5"
  bottom: "inception_4d/pool_proj"
  top: "inception_4d/output"
}
layer {
  name: "inception_4e/1x1"
  type: "Convolution"
  bottom: "inception_4d/output"
  top: "inception_4e/1x1"
  param {
    lr_mult: 1
    decay_mult: 1
  }
  param {
    lr_mult: 2
    decay_mult: 0
  }
  convolution_param {
    num_output: 256
    kernel_size: 1
    weight_filler {
      type: "xavier"
    }
    bias_filler {
      type: "constant"
      value: 0.2
    }
  }
}
layer {
  name: "inception_4e/relu_1x1"
  type: "ReLU"
  bottom: "inception_4e/1x1"
  top: "inception_4e/1x1"
}
layer {
  name: "inception_4e/3x3_reduce"
  type: "Convolution"
  bottom: "inception_4d/output"
  top: "inception_4e/3x3_reduce"
  param {
    lr_mult: 1
    decay_mult: 1
  }
  param {
    lr_mult: 2
    decay_mult: 0
  }
  convolution_param {
    num_output: 160
    kernel_size: 1
    weight_filler {
      type: "xavier"
    }
    bias_filler {
      type: "constant"
      value: 0.2
    }
  }
}
layer {
  name: "inception_4e/relu_3x3_reduce"
  type: "ReLU"
  bottom: "inception_4e/3x3_reduce"
  top: "inception_4e/3x3_reduce"
}
layer {
  name: "inception_4e/3x3"
  type: "Convolution"
  bottom: "inception_4e/3x3_reduce"
  top: "inception_4e/3x3"
  param {
    lr_mult: 1
    decay_mult: 1
  }
  param {
    lr_mult: 2
    decay_mult: 0
  }
  convolution_param {
    num_output: 320
    pad: 1
    kernel_size: 3
    weight_filler {
      type: "xavier"
    }
    bias_filler {
      type: "constant"
      value: 0.2
    }
  }
}
layer {
  name: "inception_4e/relu_3x3"
  type: "ReLU"
  bottom: "inception_4e/3x3"
  top: "inception_4e/3x3"
}
layer {
  name: "inception_4e/5x5_reduce"
  type: "Convolution"
  bottom: "inception_4d/output"
  top: "inception_4e/5x5_reduce"
  param {
    lr_mult: 1
    decay_mult: 1
  }
  param {
    lr_mult: 2
    decay_mult: 0
  }
  convolution_param {
    num_output: 32
    kernel_size: 1
    weight_filler {
      type: "xavier"
    }
    bias_filler {
      type: "constant"
      value: 0.2
    }
  }
}
layer {
  name: "inception_4e/relu_5x5_reduce"
  type: "ReLU"
  bottom: "inception_4e/5x5_reduce"
  top: "inception_4e/5x5_reduce"
}
layer {
  name: "inception_4e/5x5"
  type: "Convolution"
  bottom: "inception_4e/5x5_reduce"
  top: "inception_4e/5x5"
  param {
    lr_mult: 1
    decay_mult: 1
  }
  param {
    lr_mult: 2
    decay_mult: 0
  }
  convolution_param {
    num_output: 128
    pad: 2
    kernel_size: 5
    weight_filler {
      type: "xavier"
    }
    bias_filler {
      type: "constant"
      value: 0.2
    }
  }
}
layer {
  name: "inception_4e/relu_5x5"
  type: "ReLU"
  bottom: "inception_4e/5x5"
  top: "inception_4e/5x5"
}
layer {
  name: "inception_4e/pool"
  type: "Pooling"
  bottom: "inception_4d/output"
  top: "inception_4e/pool"
  pooling_param {
    pool: MAX
    kernel_size: 3
    stride: 1
    pad: 1
  }
}
layer {
  name: "inception_4e/pool_proj"
  type: "Convolution"
  bottom: "inception_4e/pool"
  top: "inception_4e/pool_proj"
  param {
    lr_mult: 1
    decay_mult: 1
  }
  param {
    lr_mult: 2
    decay_mult: 0
  }
  convolution_param {
    num_output: 128
    kernel_size: 1
    weight_filler {
      type:
I0820 09:41:42.735543 10679 layer_factory.hpp:77] Creating layer data
I0820 09:41:42.735599 10679 net.cpp:92] Creating Layer data
I0820 09:41:42.735616 10679 net.cpp:400] data -> data
I0820 09:41:42.735646 10679 net.cpp:400] data -> fakelabel
I0820 09:41:42.735680 10679 image_data_layer.cpp:38] Opening file ../../train_img.txt
I0820 09:41:43.024410 10679 image_data_layer.cpp:53] A total of 900400 images.
I0820 09:41:43.228391 10679 image_data_layer.cpp:80] output data size: 30,3,324,324
I0820 09:41:43.292456 10679 net.cpp:142] Setting up data
I0820 09:41:43.292517 10679 net.cpp:149] Top shape: 30 3 324 324 (9447840)
I0820 09:41:43.292526 10679 net.cpp:149] Top shape: 30 (30)
I0820 09:41:43.292538 10679 net.cpp:157] Memory required for data: 37791480
I0820 09:41:43.292556 10679 layer_factory.hpp:77] Creating layer data_data_0_split
I0820 09:41:43.292585 10679 net.cpp:92] Creating Layer data_data_0_split
I0820 09:41:43.292593 10679 net.cpp:426] data_data_0_split <- data
I0820 09:41:43.292620 10679 net.cpp:400] data_data_0_split -> data_data_0_split_0
I0820 09:41:43.292631 10679 net.cpp:400] data_data_0_split -> data_data_0_split_1
I0820 09:41:43.292639 10679 net.cpp:400] data_data_0_split -> data_data_0_split_2
I0820 09:41:43.292691 10679 net.cpp:142] Setting up data_data_0_split
I0820 09:41:43.292701 10679 net.cpp:149] Top shape: 30 3 324 324 (9447840)
I0820 09:41:43.292706 10679 net.cpp:149] Top shape: 30 3 324 324 (9447840)
I0820 09:41:43.292712 10679 net.cpp:149] Top shape: 30 3 324 324 (9447840)
I0820 09:41:43.292737 10679 net.cpp:157] Memory required for data: 151165560
I0820 09:41:43.292759 10679 layer_factory.hpp:77] Creating layer labeldata
I0820 09:41:43.292783 10679 net.cpp:92] Creating Layer labeldata
I0820 09:41:43.292789 10679 net.cpp:400] labeldata -> label
I0820 09:41:43.292806 10679 net.cpp:400] labeldata -> fakelabel2
I0820 09:41:43.292825 10679 image_data_layer.cpp:38] Opening file ../../train_label.txt
I0820 09:41:43.577842 10679 image_data_layer.cpp:53] A total of 900400 images.
I0820 09:41:43.579663 10679 image_data_layer.cpp:80] output data size: 30,1,324,324
I0820 09:41:43.599731 10679 net.cpp:142] Setting up labeldata
I0820 09:41:43.599776 10679 net.cpp:149] Top shape: 30 1 324 324 (3149280)
I0820 09:41:43.599782 10679 net.cpp:149] Top shape: 30 (30)
I0820 09:41:43.599787 10679 net.cpp:157] Memory required for data: 163762800
I0820 09:41:43.599803 10679 layer_factory.hpp:77] Creating layer labelthreshold
I0820 09:41:43.599823 10679 net.cpp:92] Creating Layer labelthreshold
I0820 09:41:43.599829 10679 net.cpp:426] labelthreshold <- label
I0820 09:41:43.599846 10679 net.cpp:387] labelthreshold -> label (in-place)
I0820 09:41:43.599865 10679 net.cpp:142] Setting up labelthreshold
I0820 09:41:43.599871 10679 net.cpp:149] Top shape: 30 1 324 324 (3149280)
I0820 09:41:43.599876 10679 net.cpp:157] Memory required for data: 176359920
I0820 09:41:43.599880 10679 layer_factory.hpp:77] Creating layer silence
I0820 09:41:43.599896 10679 net.cpp:92] Creating Layer silence
I0820 09:41:43.599901 10679 net.cpp:426] silence <- fakelabel
I0820 09:41:43.599907 10679 net.cpp:426] silence <- fakelabel2
I0820 09:41:43.599912 10679 net.cpp:142] Setting up silence
I0820 09:41:43.599917 10679 net.cpp:157] Memory required for data: 176359920
I0820 09:41:43.599921 10679 layer_factory.hpp:77] Creating layer genslic
I0820 09:41:43.599943 10679 net.cpp:92] Creating Layer genslic
I0820 09:41:43.599948 10679 net.cpp:426] genslic <- data_data_0_split_0
I0820 09:41:43.599954 10679 net.cpp:400] genslic -> slic
I0820 09:41:43.599970 10679 net.cpp:400] genslic -> deadmap
I0820 09:41:43.600041 10679 net.cpp:142] Setting up genslic
I0820 09:41:43.600049 10679 net.cpp:149] Top shape: 30 1 324 324 (3149280)
I0820 09:41:43.600062 10679 net.cpp:149] Top shape: 30 1 18 18 (9720)
I0820 09:41:43.600067 10679 net.cpp:157] Memory required for data: 188995920
I0820 09:41:43.600071 10679 layer_factory.hpp:77] Creating layer initial_low
I0820 09:41:43.600087 10679 net.cpp:92] Creating Layer initial_low
I0820 09:41:43.600092 10679 net.cpp:426] initial_low <- data_data_0_split_1
I0820 09:41:43.600097 10679 net.cpp:426] initial_low <- slic
I0820 09:41:43.600102 10679 net.cpp:426] initial_low <- deadmap
I0820 09:41:43.600107 10679 net.cpp:426] initial_low <- label
I0820 09:41:43.600113 10679 net.cpp:400] initial_low -> region_features
I0820 09:41:43.600131 10679 net.cpp:400] initial_low -> region_labels
I0820 09:41:43.600185 10679 net.cpp:142] Setting up initial_low
I0820 09:41:43.600193 10679 net.cpp:149] Top shape: 1500 29 20 20 (17400000)
I0820 09:41:43.600198 10679 net.cpp:149] Top shape: 1500 (1500)
I0820 09:41:43.600203 10679 net.cpp:157] Memory required for data: 258601920
I0820 09:41:43.600206 10679 layer_factory.hpp:77] Creating layer region_labels_initial_low_1_split
I0820 09:41:43.600214 10679 net.cpp:92] Creating Layer region_labels_initial_low_1_split
I0820 09:41:43.600217 10679 net.cpp:426] region_labels_initial_low_1_split <- region_labels
I0820 09:41:43.600224 10679 net.cpp:400] region_labels_initial_low_1_split -> region_labels_initial_low_1_split_0
I0820 09:41:43.600230 10679 net.cpp:400] region_labels_initial_low_1_split -> region_labels_initial_low_1_split_1
I0820 09:41:43.600262 10679 net.cpp:142] Setting up region_labels_initial_low_1_split
I0820 09:41:43.600268 10679 net.cpp:149] Top shape: 1500 (1500)
I0820 09:41:43.600273 10679 net.cpp:149] Top shape: 1500 (1500)
I0820 09:41:43.600278 10679 net.cpp:157] Memory required for data: 258613920
I0820 09:41:43.600284 10679 layer_factory.hpp:77] Creating layer low_conv1
I0820 09:41:43.600313 10679 net.cpp:92] Creating Layer low_conv1
I0820 09:41:43.600327 10679 net.cpp:426] low_conv1 <- region_features
I0820 09:41:43.600334 10679 net.cpp:400] low_conv1 -> region_conv1
I0820 09:41:43.727856 10679 net.cpp:142] Setting up low_conv1
I0820 09:41:43.727901 10679 net.cpp:149] Top shape: 1500 100 20 20 (60000000)
I0820 09:41:43.727907 10679 net.cpp:157] Memory required for data: 498613920
I0820 09:41:43.727931 10679 layer_factory.hpp:77] Creating layer low_bn1
I0820 09:41:43.727968 10679 net.cpp:92] Creating Layer low_bn1
I0820 09:41:43.727974 10679 net.cpp:426] low_bn1 <- region_conv1
I0820 09:41:43.727982 10679 net.cpp:387] low_bn1 -> region_conv1 (in-place)
I0820 09:41:43.728140 10679 net.cpp:142] Setting up low_bn1
I0820 09:41:43.728157 10679 net.cpp:149] Top shape: 1500 100 20 20 (60000000)
I0820 09:41:43.728162 10679 net.cpp:157] Memory required for data: 738613920
I0820 09:41:43.728179 10679 layer_factory.hpp:77] Creating layer low_relu1
I0820 09:41:43.728194 10679 net.cpp:92] Creating Layer low_relu1
I0820 09:41:43.728199 10679 net.cpp:426] low_relu1 <- region_conv1
I0820 09:41:43.728205 10679 net.cpp:387] low_relu1 -> region_conv1 (in-place)
I0820 09:41:43.728464 10679 net.cpp:142] Setting up low_relu1
I0820 09:41:43.728492 10679 net.cpp:149] Top shape: 1500 100 20 20 (60000000)
I0820 09:41:43.728497 10679 net.cpp:157] Memory required for data: 978613920
I0820 09:41:43.728502 10679 layer_factory.hpp:77] Creating layer low_conv2
I0820 09:41:43.728521 10679 net.cpp:92] Creating Layer low_conv2
I0820 09:41:43.728528 10679 net.cpp:426] low_conv2 <- region_conv1
I0820 09:41:43.728543 10679 net.cpp:400] low_conv2 -> region_conv2
I0820 09:41:43.729805 10679 net.cpp:142] Setting up low_conv2
I0820 09:41:43.729835 10679 net.cpp:149] Top shape: 1500 100 20 20 (60000000)
I0820 09:41:43.729842 10679 net.cpp:157] Memory required for data: 1218613920
I0820 09:41:43.729849 10679 layer_factory.hpp:77] Creating layer low_bn2
I0820 09:41:43.729866 10679 net.cpp:92] Creating Layer low_bn2
I0820 09:41:43.729872 10679 net.cpp:426] low_bn2 <- region_conv2
I0820 09:41:43.729888 10679 net.cpp:387] low_bn2 -> region_conv2 (in-place)
I0820 09:41:43.730041 10679 net.cpp:142] Setting up low_bn2
I0820 09:41:43.730057 10679 net.cpp:149] Top shape: 1500 100 20 20 (60000000)
I0820 09:41:43.730060 10679 net.cpp:157] Memory required for data: 1458613920
I0820 09:41:43.730077 10679 layer_factory.hpp:77] Creating layer low_relu2
I0820 09:41:43.730085 10679 net.cpp:92] Creating Layer low_relu2
I0820 09:41:43.730090 10679 net.cpp:426] low_relu2 <- region_conv2
I0820 09:41:43.730096 10679 net.cpp:387] low_relu2 -> region_conv2 (in-place)
I0820 09:41:43.730376 10679 net.cpp:142] Setting up low_relu2
I0820 09:41:43.730403 10679 net.cpp:149] Top shape: 1500 100 20 20 (60000000)
I0820 09:41:43.730408 10679 net.cpp:157] Memory required for data: 1698613920
I0820 09:41:43.730412 10679 layer_factory.hpp:77] Creating layer low_conv3
I0820 09:41:43.730440 10679 net.cpp:92] Creating Layer low_conv3
I0820 09:41:43.730465 10679 net.cpp:426] low_conv3 <- region_conv2
I0820 09:41:43.730473 10679 net.cpp:400] low_conv3 -> region_conv3
I0820 09:41:43.731335 10679 net.cpp:142] Setting up low_conv3
I0820 09:41:43.731367 10679 net.cpp:149] Top shape: 1500 3 20 20 (1800000)
I0820 09:41:43.731372 10679 net.cpp:157] Memory required for data: 1705813920
I0820 09:41:43.731379 10679 layer_factory.hpp:77] Creating layer low_bn3
I0820 09:41:43.731402 10679 net.cpp:92] Creating Layer low_bn3
I0820 09:41:43.731407 10679 net.cpp:426] low_bn3 <- region_conv3
I0820 09:41:43.731415 10679 net.cpp:387] low_bn3 -> region_conv3 (in-place)
I0820 09:41:43.731561 10679 net.cpp:142] Setting up low_bn3
I0820 09:41:43.731570 10679 net.cpp:149] Top shape: 1500 3 20 20 (1800000)
I0820 09:41:43.731581 10679 net.cpp:157] Memory required for data: 1713013920
I0820 09:41:43.731595 10679 layer_factory.hpp:77] Creating layer low_relu3
I0820 09:41:43.731612 10679 net.cpp:92] Creating Layer low_relu3
I0820 09:41:43.731617 10679 net.cpp:426] low_relu3 <- region_conv3
I0820 09:41:43.731639 10679 net.cpp:387] low_relu3 -> region_conv3 (in-place)
I0820 09:41:43.731791 10679 net.cpp:142] Setting up low_relu3
I0820 09:41:43.731812 10679 net.cpp:149] Top shape: 1500 3 20 20 (1800000)
I0820 09:41:43.731817 10679 net.cpp:157] Memory required for data: 1720213920
I0820 09:41:43.731820 10679 layer_factory.hpp:77] Creating layer conv1/7x7_s2
I0820 09:41:43.731838 10679 net.cpp:92] Creating Layer conv1/7x7_s2
I0820 09:41:43.731843 10679 net.cpp:426] conv1/7x7_s2 <- data_data_0_split_2
I0820 09:41:43.731849 10679 net.cpp:400] conv1/7x7_s2 -> conv1/7x7_s2
I0820 09:41:43.733384 10679 net.cpp:142] Setting up conv1/7x7_s2
I0820 09:41:43.733428 10679 net.cpp:149] Top shape: 30 64 162 162 (50388480)
I0820 09:41:43.733433 10679 net.cpp:157] Memory required for data: 1921767840
I0820 09:41:43.733451 10679 layer_factory.hpp:77] Creating layer conv1/relu_7x7
I0820 09:41:43.733466 10679 net.cpp:92] Creating Layer conv1/relu_7x7
I0820 09:41:43.733471 10679 net.cpp:426] conv1/relu_7x7 <- conv1/7x7_s2
I0820 09:41:43.733479 10679 net.cpp:387] conv1/relu_7x7 -> conv1/7x7_s2 (in-place)
I0820 09:41:43.733757 10679 net.cpp:142] Setting up conv1/relu_7x7
I0820 09:41:43.733785 10679 net.cpp:149] Top shape: 30 64 162 162 (50388480)
I0820 09:41:43.733808 10679 net.cpp:157] Memory required for data: 2123321760
I0820 09:41:43.733814 10679 layer_factory.hpp:77] Creating layer pool1/3x3_s2
I0820 09:41:43.733821 10679 net.cpp:92] Creating Layer pool1/3x3_s2
I0820 09:41:43.733826 10679 net.cpp:426] pool1/3x3_s2 <- conv1/7x7_s2
I0820 09:41:43.733842 10679 net.cpp:400] pool1/3x3_s2 -> pool1/3x3_s2
I0820 09:41:43.733897 10679 net.cpp:142] Setting up pool1/3x3_s2
I0820 09:41:43.733906 10679 net.cpp:149] Top shape: 30 64 81 81 (12597120)
I0820 09:41:43.733918 10679 net.cpp:157] Memory required for data: 2173710240
I0820 09:41:43.733923 10679 layer_factory.hpp:77] Creating layer pool1/norm1
I0820 09:41:43.733939 10679 net.cpp:92] Creating Layer pool1/norm1
I0820 09:41:43.733944 10679 net.cpp:426] pool1/norm1 <- pool1/3x3_s2
I0820 09:41:43.733952 10679 net.cpp:400] pool1/norm1 -> pool1/norm1
I0820 09:41:43.734120 10679 net.cpp:142] Setting up pool1/norm1
I0820 09:41:43.734139 10679 net.cpp:149] Top shape: 30 64 81 81 (12597120)
I0820 09:41:43.734143 10679 net.cpp:157] Memory required for data: 2224098720
I0820 09:41:43.734167 10679 layer_factory.hpp:77] Creating layer conv2/3x3_reduce
I0820 09:41:43.734185 10679 net.cpp:92] Creating Layer conv2/3x3_reduce
I0820 09:41:43.734210 10679 net.cpp:426] conv2/3x3_reduce <- pool1/norm1
I0820 09:41:43.734217 10679 net.cpp:400] conv2/3x3_reduce -> conv2/3x3_reduce
I0820 09:41:43.735246 10679 net.cpp:142] Setting up conv2/3x3_reduce
I0820 09:41:43.735276 10679 net.cpp:149] Top shape: 30 64 81 81 (12597120)
I0820 09:41:43.735301 10679 net.cpp:157] Memory required for data: 2274487200
I0820 09:41:43.735308 10679 layer_factory.hpp:77] Creating layer conv2/relu_3x3_reduce
I0820 09:41:43.735317 10679 net.cpp:92] Creating Layer conv2/relu_3x3_reduce
I0820 09:41:43.735322 10679 net.cpp:426] conv2/relu_3x3_reduce <- conv2/3x3_reduce
I0820 09:41:43.735328 10679 net.cpp:387] conv2/relu_3x3_reduce -> conv2/3x3_reduce (in-place)
I0820 09:41:43.735611 10679 net.cpp:142] Setting up conv2/relu_3x3_reduce
I0820 09:41:43.735640 10679 net.cpp:149] Top shape: 30 64 81 81 (12597120)
I0820 09:41:43.735644 10679 net.cpp:157] Memory required for data: 2324875680
I0820 09:41:43.735649 10679 layer_factory.hpp:77] Creating layer conv2/3x3
I0820 09:41:43.735667 10679 net.cpp:92] Creating Layer conv2/3x3
I0820 09:41:43.735672 10679 net.cpp:426] conv2/3x3 <- conv2/3x3_reduce
I0820 09:41:43.735688 10679 net.cpp:400] conv2/3x3 -> conv2/3x3
I0820 09:41:43.737386 10679 net.cpp:142] Setting up conv2/3x3
I0820 09:41:43.737417 10679 net.cpp:149] Top shape: 30 192 81 81 (37791360)
I0820 09:41:43.737422 10679 net.cpp:157] Memory required for data: 2476041120
I0820 09:41:43.737429 10679 layer_factory.hpp:77] Creating layer conv2/relu_3x3
I0820 09:41:43.737462 10679 net.cpp:92] Creating Layer conv2/relu_3x3
I0820 09:41:43.737468 10679 net.cpp:426] conv2/relu_3x3 <- conv2/3x3
I0820 09:41:43.737485 10679 net.cpp:387] conv2/relu_3x3 -> conv2/3x3 (in-place)
I0820 09:41:43.737782 10679 net.cpp:142] Setting up conv2/relu_3x3
I0820 09:41:43.737810 10679 net.cpp:149] Top shape: 30 192 81 81 (37791360)
I0820 09:41:43.737815 10679 net.cpp:157] Memory required for data: 2627206560
I0820 09:41:43.737819 10679 layer_factory.hpp:77] Creating layer conv2/norm2
I0820 09:41:43.737836 10679 net.cpp:92] Creating Layer conv2/norm2
I0820 09:41:43.737841 10679 net.cpp:426] conv2/norm2 <- conv2/3x3
I0820 09:41:43.737848 10679 net.cpp:400] conv2/norm2 -> conv2/norm2
I0820 09:41:43.738006 10679 net.cpp:142] Setting up conv2/norm2
I0820 09:41:43.738024 10679 net.cpp:149] Top shape: 30 192 81 81 (37791360)
I0820 09:41:43.738029 10679 net.cpp:157] Memory required for data: 2778372000
I0820 09:41:43.738034 10679 layer_factory.hpp:77] Creating layer pool2/3x3_s2
I0820 09:41:43.738040 10679 net.cpp:92] Creating Layer pool2/3x3_s2
I0820 09:41:43.738052 10679 net.cpp:426] pool2/3x3_s2 <- conv2/norm2
I0820 09:41:43.738067 10679 net.cpp:400] pool2/3x3_s2 -> pool2/3x3_s2
I0820 09:41:43.738107 10679 net.cpp:142] Setting up pool2/3x3_s2
I0820 09:41:43.738116 10679 net.cpp:149] Top shape: 30 192 40 40 (9216000)
I0820 09:41:43.738119 10679 net.cpp:157] Memory required for data: 2815236000
I0820 09:41:43.738123 10679 layer_factory.hpp:77] Creating layer pool2/3x3_s2_pool2/3x3_s2_0_split
I0820 09:41:43.738139 10679 net.cpp:92] Creating Layer pool2/3x3_s2_pool2/3x3_s2_0_split
I0820 09:41:43.738144 10679 net.cpp:426] pool2/3x3_s2_pool2/3x3_s2_0_split <- pool2/3x3_s2
I0820 09:41:43.738152 10679 net.cpp:400] pool2/3x3_s2_pool2/3x3_s2_0_split -> pool2/3x3_s2_pool2/3x3_s2_0_split_0
I0820 09:41:43.738165 10679 net.cpp:400] pool2/3x3_s2_pool2/3x3_s2_0_split -> pool2/3x3_s2_pool2/3x3_s2_0_split_1
I0820 09:41:43.738173 10679 net.cpp:400] pool2/3x3_s2_pool2/3x3_s2_0_split -> pool2/3x3_s2_pool2/3x3_s2_0_split_2
I0820 09:41:43.738186 10679 net.cpp:400] pool2/3x3_s2_pool2/3x3_s2_0_split -> pool2/3x3_s2_pool2/3x3_s2_0_split_3
I0820 09:41:43.738237 10679 net.cpp:142] Setting up pool2/3x3_s2_pool2/3x3_s2_0_split
I0820 09:41:43.738245 10679 net.cpp:149] Top shape: 30 192 40 40 (9216000)
I0820 09:41:43.738250 10679 net.cpp:149] Top shape: 30 192 40 40 (9216000)
I0820 09:41:43.738255 10679 net.cpp:149] Top shape: 30 192 40 40 (9216000)
I0820 09:41:43.738260 10679 net.cpp:149] Top shape: 30 192 40 40 (9216000)
I0820 09:41:43.738265 10679 net.cpp:157] Memory required for data: 2962692000
I0820 09:41:43.738270 10679 layer_factory.hpp:77] Creating layer inception_3a/1x1
I0820 09:41:43.738286 10679 net.cpp:92] Creating Layer inception_3a/1x1
I0820 09:41:43.738291 10679 net.cpp:426] inception_3a/1x1 <- pool2/3x3_s2_pool2/3x3_s2_0_split_0
I0820 09:41:43.738307 10679 net.cpp:400] inception_3a/1x1 -> inception_3a/1x1
I0820 09:41:43.739390 10679 net.cpp:142] Setting up inception_3a/1x1
I0820 09:41:43.739413 10679 net.cpp:149] Top shape: 30 64 40 40 (3072000)
I0820 09:41:43.739418 10679 net.cpp:157] Memory required for data: 2974980000
I0820 09:41:43.739451 10679 layer_factory.hpp:77] Creating layer inception_3a/relu_1x1
I0820 09:41:43.739466 10679 net.cpp:92] Creating Layer inception_3a/relu_1x1
I0820 09:41:43.739472 10679 net.cpp:426] inception_3a/relu_1x1 <- inception_3a/1x1
I0820 09:41:43.739486 10679 net.cpp:387] inception_3a/relu_1x1 -> inception_3a/1x1 (in-place)
I0820 09:41:43.739761 10679 net.cpp:142] Setting up inception_3a/relu_1x1
I0820 09:41:43.739790 10679 net.cpp:149] Top shape: 30 64 40 40 (3072000)
I0820 09:41:43.739795 10679 net.cpp:157] Memory required for data: 2987268000
I0820 09:41:43.739800 10679 layer_factory.hpp:77] Creating layer inception_3a/3x3_reduce
I0820 09:41:43.739819 10679 net.cpp:92] Creating Layer inception_3a/3x3_reduce
I0820 09:41:43.739823 10679 net.cpp:426] inception_3a/3x3_reduce <- pool2/3x3_s2_pool2/3x3_s2_0_split_1
I0820 09:41:43.739840 10679 net.cpp:400] inception_3a/3x3_reduce -> inception_3a/3x3_reduce
I0820 09:41:43.740828 10679 net.cpp:142] Setting up inception_3a/3x3_reduce
I0820 09:41:43.740861 10679 net.cpp:149] Top shape: 30 96 40 40 (4608000)
I0820 09:41:43.740880 10679 net.cpp:157] Memory required for data: 3005700000
I0820 09:41:43.740895 10679 layer_factory.hpp:77] Creating layer inception_3a/relu_3x3_reduce
I0820 09:41:43.740902 10679 net.cpp:92] Creating Layer inception_3a/relu_3x3_reduce
I0820 09:41:43.740916 10679 net.cpp:426] inception_3a/relu_3x3_reduce <- inception_3a/3x3_reduce
I0820 09:41:43.740931 10679 net.cpp:387] inception_3a/relu_3x3_reduce -> inception_3a/3x3_reduce (in-place)
I0820 09:41:43.741086 10679 net.cpp:142] Setting up inception_3a/relu_3x3_reduce
I0820 09:41:43.741104 10679 net.cpp:149] Top shape: 30 96 40 40 (4608000)
I0820 09:41:43.741109 10679 net.cpp:157] Memory required for data: 3024132000
I0820 09:41:43.741114 10679 layer_factory.hpp:77] Creating layer inception_3a/3x3
I0820 09:41:43.741145 10679 net.cpp:92] Creating Layer inception_3a/3x3
I0820 09:41:43.741153 10679 net.cpp:426] inception_3a/3x3 <- inception_3a/3x3_reduce
I0820 09:41:43.741170 10679 net.cpp:400] inception_3a/3x3 -> inception_3a/3x3
I0820 09:41:43.742590 10679 net.cpp:142] Setting up inception_3a/3x3
I0820 09:41:43.742612 10679 net.cpp:149] Top shape: 30 128 40 40 (6144000)
I0820 09:41:43.742619 10679 net.cpp:157] Memory required for data: 3048708000
I0820 09:41:43.742624 10679 layer_factory.hpp:77] Creating layer inception_3a/relu_3x3
I0820 09:41:43.742640 10679 net.cpp:92] Creating Layer inception_3a/relu_3x3
I0820 09:41:43.742645 10679 net.cpp:426] inception_3a/relu_3x3 <- inception_3a/3x3
I0820 09:41:43.742660 10679 net.cpp:387] inception_3a/relu_3x3 -> inception_3a/3x3 (in-place)
I0820 09:41:43.742804 10679 net.cpp:142] Setting up inception_3a/relu_3x3
I0820 09:41:43.742821 10679 net.cpp:149] Top shape: 30 128 40 40 (6144000)
I0820 09:41:43.742826 10679 net.cpp:157] Memory required for data: 3073284000
I0820 09:41:43.742831 10679 layer_factory.hpp:77] Creating layer inception_3a/5x5_reduce
I0820 09:41:43.742848 10679 net.cpp:92] Creating Layer inception_3a/5x5_reduce
I0820 09:41:43.742854 10679 net.cpp:426] inception_3a/5x5_reduce <- pool2/3x3_s2_pool2/3x3_s2_0_split_2
I0820 09:41:43.742869 10679 net.cpp:400] inception_3a/5x5_reduce -> inception_3a/5x5_reduce
I0820 09:41:43.743741 10679 net.cpp:142] Setting up inception_3a/5x5_reduce
I0820 09:41:43.743769 10679 net.cpp:149] Top shape: 30 16 40 40 (768000)
I0820 09:41:43.743774 10679 net.cpp:157] Memory required for data: 3076356000
I0820 09:41:43.743782 10679 layer_factory.hpp:77] Creating layer inception_3a/relu_5x5_reduce
I0820 09:41:43.743805 10679 net.cpp:92] Creating Layer inception_3a/relu_5x5_reduce
I0820 09:41:43.743810 10679 net.cpp:426] inception_3a/relu_5x5_reduce <- inception_3a/5x5_reduce
I0820 09:41:43.743816 10679 net.cpp:387] inception_3a/relu_5x5_reduce -> inception_3a/5x5_reduce (in-place)
I0820 09:41:43.744099 10679 net.cpp:142] Setting up inception_3a/relu_5x5_reduce
I0820 09:41:43.744120 10679 net.cpp:149] Top shape: 30 16 40 40 (768000)
I0820 09:41:43.744124 10679 net.cpp:157] Memory required for data: 3079428000
I0820 09:41:43.744129 10679 layer_factory.hpp:77] Creating layer inception_3a/5x5
I0820 09:41:43.744148 10679 net.cpp:92] Creating Layer inception_3a/5x5
I0820 09:41:43.744154 10679 net.cpp:426] inception_3a/5x5 <- inception_3a/5x5_reduce
I0820 09:41:43.744161 10679 net.cpp:400] inception_3a/5x5 -> inception_3a/5x5
I0820 09:41:43.745149 10679 net.cpp:142] Setting up inception_3a/5x5
I0820 09:41:43.745180 10679 net.cpp:149] Top shape: 30 32 40 40 (1536000)
I0820 09:41:43.745185 10679 net.cpp:157] Memory required for data: 3085572000
I0820 09:41:43.745200 10679 layer_factory.hpp:77] Creating layer inception_3a/relu_5x5
I0820 09:41:43.745219 10679 net.cpp:92] Creating Layer inception_3a/relu_5x5
I0820 09:41:43.745225 10679 net.cpp:426] inception_3a/relu_5x5 <- inception_3a/5x5
I0820 09:41:43.745231 10679 net.cpp:387] inception_3a/relu_5x5 -> inception_3a/5x5 (in-place)
I0820 09:41:43.745388 10679 net.cpp:142] Setting up inception_3a/relu_5x5
I0820 09:41:43.745407 10679 net.cpp:149] Top shape: 30 32 40 40 (1536000)
I0820 09:41:43.745416 10679 net.cpp:157] Memory required for data: 3091716000
I0820 09:41:43.745441 10679 layer_factory.hpp:77] Creating layer inception_3a/pool
I0820 09:41:43.745456 10679 net.cpp:92] Creating Layer inception_3a/pool
I0820 09:41:43.745461 10679 net.cpp:426] inception_3a/pool <- pool2/3x3_s2_pool2/3x3_s2_0_split_3
I0820 09:41:43.745477 10679 net.cpp:400] inception_3a/pool -> inception_3a/pool
I0820 09:41:43.745525 10679 net.cpp:142] Setting up inception_3a/pool
I0820 09:41:43.745533 10679 net.cpp:149] Top shape: 30 192 40 40 (9216000)
I0820 09:41:43.745537 10679 net.cpp:157] Memory required for data: 3128580000
I0820 09:41:43.745543 10679 layer_factory.hpp:77] Creating layer inception_3a/pool_proj
I0820 09:41:43.745560 10679 net.cpp:92] Creating Layer inception_3a/pool_proj
I0820 09:41:43.745565 10679 net.cpp:426] inception_3a/pool_proj <- inception_3a/pool
I0820 09:41:43.745581 10679 net.cpp:400] inception_3a/pool_proj -> inception_3a/pool_proj
I0820 09:41:43.746472 10679 net.cpp:142] Setting up inception_3a/pool_proj
I0820 09:41:43.746495 10679 net.cpp:149] Top shape: 30 32 40 40 (1536000)
I0820 09:41:43.746500 10679 net.cpp:157] Memory required for data: 3134724000
I0820 09:41:43.746520 10679 layer_factory.hpp:77] Creating layer inception_3a/relu_pool_proj
I0820 09:41:43.746536 10679 net.cpp:92] Creating Layer inception_3a/relu_pool_proj
I0820 09:41:43.746541 10679 net.cpp:426] inception_3a/relu_pool_proj <- inception_3a/pool_proj
I0820 09:41:43.746547 10679 net.cpp:387] inception_3a/relu_pool_proj -> inception_3a/pool_proj (in-place)
I0820 09:41:43.746690 10679 net.cpp:142] Setting up inception_3a/relu_pool_proj
I0820 09:41:43.746708 10679 net.cpp:149] Top shape: 30 32 40 40 (1536000)
I0820 09:41:43.746713 10679 net.cpp:157] Memory required for data: 3140868000
I0820 09:41:43.746718 10679 layer_factory.hpp:77] Creating layer inception_3a/output
I0820 09:41:43.746740 10679 net.cpp:92] Creating Layer inception_3a/output
I0820 09:41:43.746747 10679 net.cpp:426] inception_3a/output <- inception_3a/1x1
I0820 09:41:43.746752 10679 net.cpp:426] inception_3a/output <- inception_3a/3x3
I0820 09:41:43.746757 10679 net.cpp:426] inception_3a/output <- inception_3a/5x5
I0820 09:41:43.746762 10679 net.cpp:426] inception_3a/output <- inception_3a/pool_proj
I0820 09:41:43.746767 10679 net.cpp:400] inception_3a/output -> inception_3a/output
I0820 09:41:43.746799 10679 net.cpp:142] Setting up inception_3a/output
I0820 09:41:43.746808 10679 net.cpp:149] Top shape: 30 256 40 40 (12288000)
I0820 09:41:43.746811 10679 net.cpp:157] Memory required for data: 3190020000
I0820 09:41:43.746816 10679 layer_factory.hpp:77] Creating layer inception_3a/output_inception_3a/output_0_split
I0820 09:41:43.746824 10679 net.cpp:92] Creating Layer inception_3a/output_inception_3a/output_0_split
I0820 09:41:43.746829 10679 net.cpp:426] inception_3a/output_inception_3a/output_0_split <- inception_3a/output
I0820 09:41:43.746845 10679 net.cpp:400] inception_3a/output_inception_3a/output_0_split -> inception_3a/output_inception_3a/output_0_split_0
I0820 09:41:43.746852 10679 net.cpp:400] inception_3a/output_inception_3a/output_0_split -> inception_3a/output_inception_3a/output_0_split_1
I0820 09:41:43.746867 10679 net.cpp:400] inception_3a/output_inception_3a/output_0_split -> inception_3a/output_inception_3a/output_0_split_2
I0820 09:41:43.746878 10679 net.cpp:400] inception_3a/output_inception_3a/output_0_split -> inception_3a/output_inception_3a/output_0_split_3
I0820 09:41:43.746937 10679 net.cpp:142] Setting up inception_3a/output_inception_3a/output_0_split
I0820 09:41:43.746953 10679 net.cpp:149] Top shape: 30 256 40 40 (12288000)
I0820 09:41:43.746958 10679 net.cpp:149] Top shape: 30 256 40 40 (12288000)
I0820 09:41:43.746963 10679 net.cpp:149] Top shape: 30 256 40 40 (12288000)
I0820 09:41:43.746968 10679 net.cpp:149] Top shape: 30 256 40 40 (12288000)
I0820 09:41:43.746973 10679 net.cpp:157] Memory required for data: 3386628000
I0820 09:41:43.746978 10679 layer_factory.hpp:77] Creating layer inception_3b/1x1
I0820 09:41:43.746997 10679 net.cpp:92] Creating Layer inception_3b/1x1
I0820 09:41:43.747007 10679 net.cpp:426] inception_3b/1x1 <- inception_3a/output_inception_3a/output_0_split_0
I0820 09:41:43.747017 10679 net.cpp:400] inception_3b/1x1 -> inception_3b/1x1
I0820 09:41:43.748030 10679 net.cpp:142] Setting up inception_3b/1x1
I0820 09:41:43.748059 10679 net.cpp:149] Top shape: 30 128 40 40 (6144000)
I0820 09:41:43.748064 10679 net.cpp:157] Memory required for data: 3411204000
I0820 09:41:43.748071 10679 layer_factory.hpp:77] Creating layer inception_3b/relu_1x1
I0820 09:41:43.748085 10679 net.cpp:92] Creating Layer inception_3b/relu_1x1
I0820 09:41:43.748091 10679 net.cpp:426] inception_3b/relu_1x1 <- inception_3b/1x1
I0820 09:41:43.748106 10679 net.cpp:387] inception_3b/relu_1x1 -> inception_3b/1x1 (in-place)
I0820 09:41:43.748498 10679 net.cpp:142] Setting up inception_3b/relu_1x1
I0820 09:41:43.748527 10679 net.cpp:149] Top shape: 30 128 40 40 (6144000)
I0820 09:41:43.748531 10679 net.cpp:157] Memory required for data: 3435780000
I0820 09:41:43.748536 10679 layer_factory.hpp:77] Creating layer inception_3b/3x3_reduce
I0820 09:41:43.748555 10679 net.cpp:92] Creating Layer inception_3b/3x3_reduce
I0820 09:41:43.748561 10679 net.cpp:426] inception_3b/3x3_reduce <- inception_3a/output_inception_3a/output_0_split_1
I0820 09:41:43.748577 10679 net.cpp:400] inception_3b/3x3_reduce -> inception_3b/3x3_reduce
I0820 09:41:43.749626 10679 net.cpp:142] Setting up inception_3b/3x3_reduce
I0820 09:41:43.749657 10679 net.cpp:149] Top shape: 30 128 40 40 (6144000)
I0820 09:41:43.749662 10679 net.cpp:157] Memory required for data: 3460356000
I0820 09:41:43.749670 10679 layer_factory.hpp:77] Creating layer inception_3b/relu_3x3_reduce
I0820 09:41:43.749686 10679 net.cpp:92] Creating Layer inception_3b/relu_3x3_reduce
I0820 09:41:43.749691 10679 net.cpp:426] inception_3b/relu_3x3_reduce <- inception_3b/3x3_reduce
I0820 09:41:43.749707 10679 net.cpp:387] inception_3b/relu_3x3_reduce -> inception_3b/3x3_reduce (in-place)
I0820 09:41:43.749876 10679 net.cpp:142] Setting up inception_3b/relu_3x3_reduce
I0820 09:41:43.749893 10679 net.cpp:149] Top shape: 30 128 40 40 (6144000)
I0820 09:41:43.749898 10679 net.cpp:157] Memory required for data: 3484932000
I0820 09:41:43.749903 10679 layer_factory.hpp:77] Creating layer inception_3b/3x3
I0820 09:41:43.749922 10679 net.cpp:92] Creating Layer inception_3b/3x3
I0820 09:41:43.749928 10679 net.cpp:426] inception_3b/3x3 <- inception_3b/3x3_reduce
I0820 09:41:43.749934 10679 net.cpp:400] inception_3b/3x3 -> inception_3b/3x3
I0820 09:41:43.752362 10679 net.cpp:142] Setting up inception_3b/3x3
I0820 09:41:43.752393 10679 net.cpp:149] Top shape: 30 192 40 40 (9216000)
I0820 09:41:43.752398 10679 net.cpp:157] Memory required for data: 3521796000
I0820 09:41:43.752405 10679 layer_factory.hpp:77] Creating layer inception_3b/relu_3x3
I0820 09:41:43.752429 10679 net.cpp:92] Creating Layer inception_3b/relu_3x3
I0820 09:41:43.752434 10679 net.cpp:426] inception_3b/relu_3x3 <- inception_3b/3x3
I0820 09:41:43.752440 10679 net.cpp:387] inception_3b/relu_3x3 -> inception_3b/3x3 (in-place)
I0820 09:41:43.752583 10679 net.cpp:142] Setting up inception_3b/relu_3x3
I0820 09:41:43.752602 10679 net.cpp:149] Top shape: 30 192 40 40 (9216000)
I0820 09:41:43.752606 10679 net.cpp:157] Memory required for data: 3558660000
I0820 09:41:43.752611 10679 layer_factory.hpp:77] Creating layer inception_3b/5x5_reduce
I0820 09:41:43.752629 10679 net.cpp:92] Creating Layer inception_3b/5x5_reduce
I0820 09:41:43.752635 10679 net.cpp:426] inception_3b/5x5_reduce <- inception_3a/output_inception_3a/output_0_split_2
I0820 09:41:43.752650 10679 net.cpp:400] inception_3b/5x5_reduce -> inception_3b/5x5_reduce
I0820 09:41:43.753623 10679 net.cpp:142] Setting up inception_3b/5x5_reduce
I0820 09:41:43.753654 10679 net.cpp:149] Top shape: 30 32 40 40 (1536000)
I0820 09:41:43.753659 10679 net.cpp:157] Memory required for data: 3564804000
I0820 09:41:43.753674 10679 layer_factory.hpp:77] Creating layer inception_3b/relu_5x5_reduce
I0820 09:41:43.753690 10679 net.cpp:92] Creating Layer inception_3b/relu_5x5_reduce
I0820 09:41:43.753720 10679 net.cpp:426] inception_3b/relu_5x5_reduce <- inception_3b/5x5_reduce
I0820 09:41:43.753727 10679 net.cpp:387] inception_3b/relu_5x5_reduce -> inception_3b/5x5_reduce (in-place)
I0820 09:41:43.754046 10679 net.cpp:142] Setting up inception_3b/relu_5x5_reduce
I0820 09:41:43.754066 10679 net.cpp:149] Top shape: 30 32 40 40 (1536000)
I0820 09:41:43.754079 10679 net.cpp:157] Memory required for data: 3570948000
I0820 09:41:43.754084 10679 layer_factory.hpp:77] Creating layer inception_3b/5x5
I0820 09:41:43.754103 10679 net.cpp:92] Creating Layer inception_3b/5x5
I0820 09:41:43.754109 10679 net.cpp:426] inception_3b/5x5 <- inception_3b/5x5_reduce
I0820 09:41:43.754124 10679 net.cpp:400] inception_3b/5x5 -> inception_3b/5x5
I0820 09:41:43.755825 10679 net.cpp:142] Setting up inception_3b/5x5
I0820 09:41:43.755854 10679 net.cpp:149] Top shape: 30 96 40 40 (4608000)
I0820 09:41:43.755859 10679 net.cpp:157] Memory required for data: 3589380000
I0820 09:41:43.755874 10679 layer_factory.hpp:77] Creating layer inception_3b/relu_5x5
I0820 09:41:43.755882 10679 net.cpp:92] Creating Layer inception_3b/relu_5x5
I0820 09:41:43.755894 10679 net.cpp:426] inception_3b/relu_5x5 <- inception_3b/5x5
I0820 09:41:43.755909 10679 net.cpp:387] inception_3b/relu_5x5 -> inception_3b/5x5 (in-place)
I0820 09:41:43.756065 10679 net.cpp:142] Setting up inception_3b/relu_5x5
I0820 09:41:43.756077 10679 net.cpp:149] Top shape: 30 96 40 40 (4608000)
I0820 09:41:43.756081 10679 net.cpp:157] Memory required for data: 3607812000
I0820 09:41:43.756085 10679 layer_factory.hpp:77] Creating layer inception_3b/pool
I0820 09:41:43.756093 10679 net.cpp:92] Creating Layer inception_3b/pool
I0820 09:41:43.756105 10679 net.cpp:426] inception_3b/pool <- inception_3a/output_inception_3a/output_0_split_3
I0820 09:41:43.756121 10679 net.cpp:400] inception_3b/pool -> inception_3b/pool
I0820 09:41:43.756168 10679 net.cpp:142] Setting up inception_3b/pool
I0820 09:41:43.756176 10679 net.cpp:149] Top shape: 30 256 40 40 (12288000)
I0820 09:41:43.756188 10679 net.cpp:157] Memory required for data: 3656964000
I0820 09:41:43.756192 10679 layer_factory.hpp:77] Creating layer inception_3b/pool_proj
I0820 09:41:43.756211 10679 net.cpp:92] Creating Layer inception_3b/pool_proj
I0820 09:41:43.756217 10679 net.cpp:426] inception_3b/pool_proj <- inception_3b/pool
I0820 09:41:43.756223 10679 net.cpp:400] inception_3b/pool_proj -> inception_3b/pool_proj
I0820 09:41:43.757221 10679 net.cpp:142] Setting up inception_3b/pool_proj
I0820 09:41:43.757251 10679 net.cpp:149] Top shape: 30 64 40 40 (3072000)
I0820 09:41:43.757256 10679 net.cpp:157] Memory required for data: 3669252000
I0820 09:41:43.757263 10679 layer_factory.hpp:77] Creating layer inception_3b/relu_pool_proj
I0820 09:41:43.757279 10679 net.cpp:92] Creating Layer inception_3b/relu_pool_proj
I0820 09:41:43.757285 10679 net.cpp:426] inception_3b/relu_pool_proj <- inception_3b/pool_proj
I0820 09:41:43.757292 10679 net.cpp:387] inception_3b/relu_pool_proj -> inception_3b/pool_proj (in-place)
I0820 09:41:43.757470 10679 net.cpp:142] Setting up inception_3b/relu_pool_proj
I0820 09:41:43.757489 10679 net.cpp:149] Top shape: 30 64 40 40 (3072000)
I0820 09:41:43.757493 10679 net.cpp:157] Memory required for data: 3681540000
I0820 09:41:43.757498 10679 layer_factory.hpp:77] Creating layer inception_3b/output
I0820 09:41:43.757506 10679 net.cpp:92] Creating Layer inception_3b/output
I0820 09:41:43.757511 10679 net.cpp:426] inception_3b/output <- inception_3b/1x1
I0820 09:41:43.757517 10679 net.cpp:426] inception_3b/output <- inception_3b/3x3
I0820 09:41:43.757522 10679 net.cpp:426] inception_3b/output <- inception_3b/5x5
I0820 09:41:43.757527 10679 net.cpp:426] inception_3b/output <- inception_3b/pool_proj
I0820 09:41:43.757555 10679 net.cpp:400] inception_3b/output -> inception_3b/output
I0820 09:41:43.757589 10679 net.cpp:142] Setting up inception_3b/output
I0820 09:41:43.757597 10679 net.cpp:149] Top shape: 30 480 40 40 (23040000)
I0820 09:41:43.757622 10679 net.cpp:157] Memory required for data: 3773700000
I0820 09:41:43.757639 10679 layer_factory.hpp:77] Creating layer pool3/3x3_s2
I0820 09:41:43.757655 10679 net.cpp:92] Creating Layer pool3/3x3_s2
I0820 09:41:43.757661 10679 net.cpp:426] pool3/3x3_s2 <- inception_3b/output
I0820 09:41:43.757668 10679 net.cpp:400] pool3/3x3_s2 -> pool3/3x3_s2
I0820 09:41:43.757710 10679 net.cpp:142] Setting up pool3/3x3_s2
I0820 09:41:43.757719 10679 net.cpp:149] Top shape: 30 480 20 20 (5760000)
I0820 09:41:43.757730 10679 net.cpp:157] Memory required for data: 3796740000
I0820 09:41:43.757735 10679 layer_factory.hpp:77] Creating layer pool3/3x3_s2_pool3/3x3_s2_0_split
I0820 09:41:43.757751 10679 net.cpp:92] Creating Layer pool3/3x3_s2_pool3/3x3_s2_0_split
I0820 09:41:43.757755 10679 net.cpp:426] pool3/3x3_s2_pool3/3x3_s2_0_split <- pool3/3x3_s2
I0820 09:41:43.757761 10679 net.cpp:400] pool3/3x3_s2_pool3/3x3_s2_0_split -> pool3/3x3_s2_pool3/3x3_s2_0_split_0
I0820 09:41:43.757786 10679 net.cpp:400] pool3/3x3_s2_pool3/3x3_s2_0_split -> pool3/3x3_s2_pool3/3x3_s2_0_split_1
I0820 09:41:43.757792 10679 net.cpp:400] pool3/3x3_s2_pool3/3x3_s2_0_split -> pool3/3x3_s2_pool3/3x3_s2_0_split_2
I0820 09:41:43.757798 10679 net.cpp:400] pool3/3x3_s2_pool3/3x3_s2_0_split -> pool3/3x3_s2_pool3/3x3_s2_0_split_3
I0820 09:41:43.757856 10679 net.cpp:142] Setting up pool3/3x3_s2_pool3/3x3_s2_0_split
I0820 09:41:43.757863 10679 net.cpp:149] Top shape: 30 480 20 20 (5760000)
I0820 09:41:43.757869 10679 net.cpp:149] Top shape: 30 480 20 20 (5760000)
I0820 09:41:43.757874 10679 net.cpp:149] Top shape: 30 480 20 20 (5760000)
I0820 09:41:43.757879 10679 net.cpp:149] Top shape: 30 480 20 20 (5760000)
I0820 09:41:43.757882 10679 net.cpp:157] Memory required for data: 3888900000
I0820 09:41:43.757887 10679 layer_factory.hpp:77] Creating layer inception_4a/1x1
I0820 09:41:43.757907 10679 net.cpp:92] Creating Layer inception_4a/1x1
I0820 09:41:43.757913 10679 net.cpp:426] inception_4a/1x1 <- pool3/3x3_s2_pool3/3x3_s2_0_split_0
I0820 09:41:43.757930 10679 net.cpp:400] inception_4a/1x1 -> inception_4a/1x1
I0820 09:41:43.759251 10679 net.cpp:142] Setting up inception_4a/1x1
I0820 09:41:43.759280 10679 net.cpp:149] Top shape: 30 192 20 20 (2304000)
I0820 09:41:43.759286 10679 net.cpp:157] Memory required for data: 3898116000
I0820 09:41:43.759312 10679 layer_factory.hpp:77] Creating layer inception_4a/relu_1x1
I0820 09:41:43.759321 10679 net.cpp:92] Creating Layer inception_4a/relu_1x1
I0820 09:41:43.759327 10679 net.cpp:426] inception_4a/relu_1x1 <- inception_4a/1x1
I0820 09:41:43.759333 10679 net.cpp:387] inception_4a/relu_1x1 -> inception_4a/1x1 (in-place)
I0820 09:41:43.759629 10679 net.cpp:142] Setting up inception_4a/relu_1x1
I0820 09:41:43.759650 10679 net.cpp:149] Top shape: 30 192 20 20 (2304000)
I0820 09:41:43.759656 10679 net.cpp:157] Memory required for data: 3907332000
I0820 09:41:43.759661 10679 layer_factory.hpp:77] Creating layer inception_4a/3x3_reduce
I0820 09:41:43.759681 10679 net.cpp:92] Creating Layer inception_4a/3x3_reduce
I0820 09:41:43.759687 10679 net.cpp:426] inception_4a/3x3_reduce <- pool3/3x3_s2_pool3/3x3_s2_0_split_1
I0820 09:41:43.759694 10679 net.cpp:400] inception_4a/3x3_reduce -> inception_4a/3x3_reduce
I0820 09:41:43.760995 10679 net.cpp:142] Setting up inception_4a/3x3_reduce
I0820 09:41:43.761029 10679 net.cpp:149] Top shape: 30 96 20 20 (1152000)
I0820 09:41:43.761035 10679 net.cpp:157] Memory required for data: 3911940000
I0820 09:41:43.761050 10679 layer_factory.hpp:77] Creating layer inception_4a/relu_3x3_reduce
I0820 09:41:43.761066 10679 net.cpp:92] Creating Layer inception_4a/relu_3x3_reduce
I0820 09:41:43.761072 10679 net.cpp:426] inception_4a/relu_3x3_reduce <- inception_4a/3x3_reduce
I0820 09:41:43.761078 10679 net.cpp:387] inception_4a/relu_3x3_reduce -> inception_4a/3x3_reduce (in-place)
I0820 09:41:43.761225 10679 net.cpp:142] Setting up inception_4a/relu_3x3_reduce
I0820 09:41:43.761257 10679 net.cpp:149] Top shape: 30 96 20 20 (1152000)
I0820 09:41:43.761266 10679 net.cpp:157] Memory required for data: 3916548000
I0820 09:41:43.761283 10679 layer_factory.hpp:77] Creating layer inception_4a/3x3
I0820 09:41:43.761304 10679 net.cpp:92] Creating Layer inception_4a/3x3
I0820 09:41:43.761312 10679 net.cpp:426] inception_4a/3x3 <- inception_4a/3x3_reduce
I0820 09:41:43.761332 10679 net.cpp:400] inception_4a/3x3 -> inception_4a/3x3
I0820 09:41:43.763569 10679 net.cpp:142] Setting up inception_4a/3x3
I0820 09:41:43.763602 10679 net.cpp:149] Top shape: 30 208 20 20 (2496000)
I0820 09:41:43.763607 10679 net.cpp:157] Memory required for data: 3926532000
I0820 09:41:43.763614 10679 layer_factory.hpp:77] Creating layer inception_4a/relu_3x3
I0820 09:41:43.763643 10679 net.cpp:92] Creating Layer inception_4a/relu_3x3
I0820 09:41:43.763648 10679 net.cpp:426] inception_4a/relu_3x3 <- inception_4a/3x3
I0820 09:41:43.763654 10679 net.cpp:387] inception_4a/relu_3x3 -> inception_4a/3x3 (in-place)
I0820 09:41:43.763815 10679 net.cpp:142] Setting up inception_4a/relu_3x3
I0820 09:41:43.763834 10679 net.cpp:149] Top shape: 30 208 20 20 (2496000)
I0820 09:41:43.763839 10679 net.cpp:157] Memory required for data: 3936516000
I0820 09:41:43.763844 10679 layer_factory.hpp:77] Creating layer inception_4a/5x5_reduce
I0820 09:41:43.763861 10679 net.cpp:92] Creating Layer inception_4a/5x5_reduce
I0820 09:41:43.763867 10679 net.cpp:426] inception_4a/5x5_reduce <- pool3/3x3_s2_pool3/3x3_s2_0_split_2
I0820 09:41:43.763883 10679 net.cpp:400] inception_4a/5x5_reduce -> inception_4a/5x5_reduce
I0820 09:41:43.764804 10679 net.cpp:142] Setting up inception_4a/5x5_reduce
I0820 09:41:43.764818 10679 net.cpp:149] Top shape: 30 16 20 20 (192000)
I0820 09:41:43.764823 10679 net.cpp:157] Memory required for data: 3937284000
I0820 09:41:43.764830 10679 layer_factory.hpp:77] Creating layer inception_4a/relu_5x5_reduce
I0820 09:41:43.764839 10679 net.cpp:92] Creating Layer inception_4a/relu_5x5_reduce
I0820 09:41:43.764845 10679 net.cpp:426] inception_4a/relu_5x5_reduce <- inception_4a/5x5_reduce
I0820 09:41:43.764852 10679 net.cpp:387] inception_4a/relu_5x5_reduce -> inception_4a/5x5_reduce (in-place)
I0820 09:41:43.765172 10679 net.cpp:142] Setting up inception_4a/relu_5x5_reduce
I0820 09:41:43.765202 10679 net.cpp:149] Top shape: 30 16 20 20 (192000)
I0820 09:41:43.765210 10679 net.cpp:157] Memory required for data: 3938052000
I0820 09:41:43.765218 10679 layer_factory.hpp:77] Creating layer inception_4a/5x5
I0820 09:41:43.765239 10679 net.cpp:92] Creating Layer inception_4a/5x5
I0820 09:41:43.765247 10679 net.cpp:426] inception_4a/5x5 <- inception_4a/5x5_reduce
I0820 09:41:43.765257 10679 net.cpp:400] inception_4a/5x5 -> inception_4a/5x5
I0820 09:41:43.766280 10679 net.cpp:142] Setting up inception_4a/5x5
I0820 09:41:43.766309 10679 net.cpp:149] Top shape: 30 48 20 20 (576000)
I0820 09:41:43.766314 10679 net.cpp:157] Memory required for data: 3940356000
I0820 09:41:43.766330 10679 layer_factory.hpp:77] Creating layer inception_4a/relu_5x5
I0820 09:41:43.766346 10679 net.cpp:92] Creating Layer inception_4a/relu_5x5
I0820 09:41:43.766351 10679 net.cpp:426] inception_4a/relu_5x5 <- inception_4a/5x5
I0820 09:41:43.766357 10679 net.cpp:387] inception_4a/relu_5x5 -> inception_4a/5x5 (in-place)
I0820 09:41:43.766533 10679 net.cpp:142] Setting up inception_4a/relu_5x5
I0820 09:41:43.766553 10679 net.cpp:149] Top shape: 30 48 20 20 (576000)
I0820 09:41:43.766558 10679 net.cpp:157] Memory required for data: 3942660000
I0820 09:41:43.766563 10679 layer_factory.hpp:77] Creating layer inception_4a/pool
I0820 09:41:43.766578 10679 net.cpp:92] Creating Layer inception_4a/pool
I0820 09:41:43.766583 10679 net.cpp:426] inception_4a/pool <- pool3/3x3_s2_pool3/3x3_s2_0_split_3
I0820 09:41:43.766599 10679 net.cpp:400] inception_4a/pool -> inception_4a/pool
I0820 09:41:43.766646 10679 net.cpp:142] Setting up inception_4a/pool
I0820 09:41:43.766664 10679 net.cpp:149] Top shape: 30 480 20 20 (5760000)
I0820 09:41:43.766669 10679 net.cpp:157] Memory required for data: 3965700000
I0820 09:41:43.766674 10679 layer_factory.hpp:77] Creating layer inception_4a/pool_proj
I0820 09:41:43.766690 10679 net.cpp:92] Creating Layer inception_4a/pool_proj
I0820 09:41:43.766706 10679 net.cpp:426] inception_4a/pool_proj <- inception_4a/pool
I0820 09:41:43.766736 10679 net.cpp:400] inception_4a/pool_proj -> inception_4a/pool_proj
I0820 09:41:43.767827 10679 net.cpp:142] Setting up inception_4a/pool_proj
I0820 09:41:43.767858 10679 net.cpp:149] Top shape: 30 64 20 20 (768000)
I0820 09:41:43.767863 10679 net.cpp:157] Memory required for data: 3968772000
I0820 09:41:43.767870 10679 layer_factory.hpp:77] Creating layer inception_4a/relu_pool_proj
I0820 09:41:43.767894 10679 net.cpp:92] Creating Layer inception_4a/relu_pool_proj
I0820 09:41:43.767899 10679 net.cpp:426] inception_4a/relu_pool_proj <- inception_4a/pool_proj
I0820 09:41:43.767905 10679 net.cpp:387] inception_4a/relu_pool_proj -> inception_4a/pool_proj (in-place)
I0820 09:41:43.768057 10679 net.cpp:142] Setting up inception_4a/relu_pool_proj
I0820 09:41:43.768087 10679 net.cpp:149] Top shape: 30 64 20 20 (768000)
I0820 09:41:43.768092 10679 net.cpp:157] Memory required for data: 3971844000
I0820 09:41:43.768097 10679 layer_factory.hpp:77] Creating layer inception_4a/output
I0820 09:41:43.768105 10679 net.cpp:92] Creating Layer inception_4a/output
I0820 09:41:43.768110 10679 net.cpp:426] inception_4a/output <- inception_4a/1x1
I0820 09:41:43.768115 10679 net.cpp:426] inception_4a/output <- inception_4a/3x3
I0820 09:41:43.768121 10679 net.cpp:426] inception_4a/output <- inception_4a/5x5
I0820 09:41:43.768126 10679 net.cpp:426] inception_4a/output <- inception_4a/pool_proj
I0820 09:41:43.768139 10679 net.cpp:400] inception_4a/output -> inception_4a/output
I0820 09:41:43.768175 10679 net.cpp:142] Setting up inception_4a/output
I0820 09:41:43.768193 10679 net.cpp:149] Top shape: 30 512 20 20 (6144000)
I0820 09:41:43.768198 10679 net.cpp:157] Memory required for data: 3996420000
I0820 09:41:43.768203 10679 layer_factory.hpp:77] Creating layer inception_4a/output_inception_4a/output_0_split
I0820 09:41:43.768208 10679 net.cpp:92] Creating Layer inception_4a/output_inception_4a/output_0_split
I0820 09:41:43.768213 10679 net.cpp:426] inception_4a/output_inception_4a/output_0_split <- inception_4a/output
I0820 09:41:43.768219 10679 net.cpp:400] inception_4a/output_inception_4a/output_0_split -> inception_4a/output_inception_4a/output_0_split_0
I0820 09:41:43.768226 10679 net.cpp:400] inception_4a/output_inception_4a/output_0_split -> inception_4a/output_inception_4a/output_0_split_1
I0820 09:41:43.768234 10679 net.cpp:400] inception_4a/output_inception_4a/output_0_split -> inception_4a/output_inception_4a/output_0_split_2
I0820 09:41:43.768256 10679 net.cpp:400] inception_4a/output_inception_4a/output_0_split -> inception_4a/output_inception_4a/output_0_split_3
I0820 09:41:43.768318 10679 net.cpp:142] Setting up inception_4a/output_inception_4a/output_0_split
I0820 09:41:43.768326 10679 net.cpp:149] Top shape: 30 512 20 20 (6144000)
I0820 09:41:43.768332 10679 net.cpp:149] Top shape: 30 512 20 20 (6144000)
I0820 09:41:43.768337 10679 net.cpp:149] Top shape: 30 512 20 20 (6144000)
I0820 09:41:43.768342 10679 net.cpp:149] Top shape: 30 512 20 20 (6144000)
I0820 09:41:43.768345 10679 net.cpp:157] Memory required for data: 4094724000
I0820 09:41:43.768349 10679 layer_factory.hpp:77] Creating layer inception_4b/1x1
I0820 09:41:43.768378 10679 net.cpp:92] Creating Layer inception_4b/1x1
I0820 09:41:43.768383 10679 net.cpp:426] inception_4b/1x1 <- inception_4a/output_inception_4a/output_0_split_0
I0820 09:41:43.768399 10679 net.cpp:400] inception_4b/1x1 -> inception_4b/1x1
I0820 09:41:43.769716 10679 net.cpp:142] Setting up inception_4b/1x1
I0820 09:41:43.769748 10679 net.cpp:149] Top shape: 30 160 20 20 (1920000)
I0820 09:41:43.769754 10679 net.cpp:157] Memory required for data: 4102404000
I0820 09:41:43.769769 10679 layer_factory.hpp:77] Creating layer inception_4b/relu_1x1
I0820 09:41:43.769776 10679 net.cpp:92] Creating Layer inception_4b/relu_1x1
I0820 09:41:43.769781 10679 net.cpp:426] inception_4b/relu_1x1 <- inception_4b/1x1
I0820 09:41:43.769788 10679 net.cpp:387] inception_4b/relu_1x1 -> inception_4b/1x1 (in-place)
I0820 09:41:43.770067 10679 net.cpp:142] Setting up inception_4b/relu_1x1
I0820 09:41:43.770100 10679 net.cpp:149] Top shape: 30 160 20 20 (1920000)
I0820 09:41:43.770107 10679 net.cpp:157] Memory required for data: 4110084000
I0820 09:41:43.770110 10679 layer_factory.hpp:77] Creating layer inception_4b/3x3_reduce
I0820 09:41:43.770128 10679 net.cpp:92] Creating Layer inception_4b/3x3_reduce
I0820 09:41:43.770134 10679 net.cpp:426] inception_4b/3x3_reduce <- inception_4a/output_inception_4a/output_0_split_1
I0820 09:41:43.770141 10679 net.cpp:400] inception_4b/3x3_reduce -> inception_4b/3x3_reduce
I0820 09:41:43.771847 10679 net.cpp:142] Setting up inception_4b/3x3_reduce
I0820 09:41:43.771878 10679 net.cpp:149] Top shape: 30 112 20 20 (1344000)
I0820 09:41:43.771884 10679 net.cpp:157] Memory required for data: 4115460000
I0820 09:41:43.771899 10679 layer_factory.hpp:77] Creating layer inception_4b/relu_3x3_reduce
I0820 09:41:43.771906 10679 net.cpp:92] Creating Layer inception_4b/relu_3x3_reduce
I0820 09:41:43.771919 10679 net.cpp:426] inception_4b/relu_3x3_reduce <- inception_4b/3x3_reduce
I0820 09:41:43.771925 10679 net.cpp:387] inception_4b/relu_3x3_reduce -> inception_4b/3x3_reduce (in-place)
I0820 09:41:43.772074 10679 net.cpp:142] Setting up inception_4b/relu_3x3_reduce
I0820 09:41:43.772092 10679 net.cpp:149] Top shape: 30 112 20 20 (1344000)
I0820 09:41:43.772096 10679 net.cpp:157] Memory required for data: 4120836000
I0820 09:41:43.772101 10679 layer_factory.hpp:77] Creating layer inception_4b/3x3
I0820 09:41:43.772119 10679 net.cpp:92] Creating Layer inception_4b/3x3
I0820 09:41:43.772125 10679 net.cpp:426] inception_4b/3x3 <- inception_4b/3x3_reduce
I0820 09:41:43.772140 10679 net.cpp:400] inception_4b/3x3 -> inception_4b/3x3
I0820 09:41:43.774593 10679 net.cpp:142] Setting up inception_4b/3x3
I0820 09:41:43.774622 10679 net.cpp:149] Top shape: 30 224 20 20 (2688000)
I0820 09:41:43.774636 10679 net.cpp:157] Memory required for data: 4131588000
I0820 09:41:43.774646 10679 layer_factory.hpp:77] Creating layer inception_4b/relu_3x3
I0820 09:41:43.774655 10679 net.cpp:92] Creating Layer inception_4b/relu_3x3
I0820 09:41:43.774662 10679 net.cpp:426] inception_4b/relu_3x3 <- inception_4b/3x3
I0820 09:41:43.774668 10679 net.cpp:387] inception_4b/relu_3x3 -> inception_4b/3x3 (in-place)
I0820 09:41:43.774821 10679 net.cpp:142] Setting up inception_4b/relu_3x3
I0820 09:41:43.774840 10679 net.cpp:149] Top shape: 30 224 20 20 (2688000)
I0820 09:41:43.774844 10679 net.cpp:157] Memory required for data: 4142340000
I0820 09:41:43.774849 10679 layer_factory.hpp:77] Creating layer inception_4b/5x5_reduce
I0820 09:41:43.774868 10679 net.cpp:92] Creating Layer inception_4b/5x5_reduce
I0820 09:41:43.774873 10679 net.cpp:426] inception_4b/5x5_reduce <- inception_4a/output_inception_4a/output_0_split_2
I0820 09:41:43.774881 10679 net.cpp:400] inception_4b/5x5_reduce -> inception_4b/5x5_reduce
I0820 09:41:43.776006 10679 net.cpp:142] Setting up inception_4b/5x5_reduce
I0820 09:41:43.776046 10679 net.cpp:149] Top shape: 30 24 20 20 (288000)
I0820 09:41:43.776051 10679 net.cpp:157] Memory required for data: 4143492000
I0820 09:41:43.776074 10679 layer_factory.hpp:77] Creating layer inception_4b/relu_5x5_reduce
I0820 09:41:43.776092 10679 net.cpp:92] Creating Layer inception_4b/relu_5x5_reduce
I0820 09:41:43.776098 10679 net.cpp:426] inception_4b/relu_5x5_reduce <- inception_4b/5x5_reduce
I0820 09:41:43.776103 10679 net.cpp:387] inception_4b/relu_5x5_reduce -> inception_4b/5x5_reduce (in-place)
I0820 09:41:43.776412 10679 net.cpp:142] Setting up inception_4b/relu_5x5_reduce
I0820 09:41:43.776425 10679 net.cpp:149] Top shape: 30 24 20 20 (288000)
I0820 09:41:43.776430 10679 net.cpp:157] Memory required for data: 4144644000
I0820 09:41:43.776435 10679 layer_factory.hpp:77] Creating layer inception_4b/5x5
I0820 09:41:43.776453 10679 net.cpp:92] Creating Layer inception_4b/5x5
I0820 09:41:43.776459 10679 net.cpp:426] inception_4b/5x5 <- inception_4b/5x5_reduce
I0820 09:41:43.776475 10679 net.cpp:400] inception_4b/5x5 -> inception_4b/5x5
I0820 09:41:43.777614 10679 net.cpp:142] Setting up inception_4b/5x5
I0820 09:41:43.777634 10679 net.cpp:149] Top shape: 30 64 20 20 (768000)
I0820 09:41:43.777640 10679 net.cpp:157] Memory required for data: 4147716000
I0820 09:41:43.777648 10679 layer_factory.hpp:77] Creating layer inception_4b/relu_5x5
I0820 09:41:43.777657 10679 net.cpp:92] Creating Layer inception_4b/relu_5x5
I0820 09:41:43.777663 10679 net.cpp:426] inception_4b/relu_5x5 <- inception_4b/5x5
I0820 09:41:43.777669 10679 net.cpp:387] inception_4b/relu_5x5 -> inception_4b/5x5 (in-place)
I0820 09:41:43.777812 10679 net.cpp:142] Setting up inception_4b/relu_5x5
I0820 09:41:43.777822 10679 net.cpp:149] Top shape: 30 64 20 20 (768000)
I0820 09:41:43.777827 10679 net.cpp:157] Memory required for data: 4150788000
I0820 09:41:43.777832 10679 layer_factory.hpp:77] Creating layer inception_4b/pool
I0820 09:41:43.777839 10679 net.cpp:92] Creating Layer inception_4b/pool
I0820 09:41:43.777844 10679 net.cpp:426] inception_4b/pool <- inception_4a/output_inception_4a/output_0_split_3
I0820 09:41:43.777853 10679 net.cpp:400] inception_4b/pool -> inception_4b/pool
I0820 09:41:43.777905 10679 net.cpp:142] Setting up inception_4b/pool
I0820 09:41:43.777915 10679 net.cpp:149] Top shape: 30 512 20 20 (6144000)
I0820 09:41:43.777920 10679 net.cpp:157] Memory required for data: 4175364000
I0820 09:41:43.777925 10679 layer_factory.hpp:77] Creating layer inception_4b/pool_proj
I0820 09:41:43.777935 10679 net.cpp:92] Creating Layer inception_4b/pool_proj
I0820 09:41:43.777940 10679 net.cpp:426] inception_4b/pool_proj <- inception_4b/pool
I0820 09:41:43.777947 10679 net.cpp:400] inception_4b/pool_proj -> inception_4b/pool_proj
I0820 09:41:43.779059 10679 net.cpp:142] Setting up inception_4b/pool_proj
I0820 09:41:43.779090 10679 net.cpp:149] Top shape: 30 64 20 20 (768000)
I0820 09:41:43.779096 10679 net.cpp:157] Memory required for data: 4178436000
I0820 09:41:43.779111 10679 layer_factory.hpp:77] Creating layer inception_4b/relu_pool_proj
I0820 09:41:43.779126 10679 net.cpp:92] Creating Layer inception_4b/relu_pool_proj
I0820 09:41:43.779131 10679 net.cpp:426] inception_4b/relu_pool_proj <- inception_4b/pool_proj
I0820 09:41:43.779147 10679 net.cpp:387] inception_4b/relu_pool_proj -> inception_4b/pool_proj (in-place)
I0820 09:41:43.779312 10679 net.cpp:142] Setting up inception_4b/relu_pool_proj
I0820 09:41:43.779330 10679 net.cpp:149] Top shape: 30 64 20 20 (768000)
I0820 09:41:43.779335 10679 net.cpp:157] Memory required for data: 4181508000
I0820 09:41:43.779340 10679 layer_factory.hpp:77] Creating layer inception_4b/output
I0820 09:41:43.779356 10679 net.cpp:92] Creating Layer inception_4b/output
I0820 09:41:43.779361 10679 net.cpp:426] inception_4b/output <- inception_4b/1x1
I0820 09:41:43.779366 10679 net.cpp:426] inception_4b/output <- inception_4b/3x3
I0820 09:41:43.779371 10679 net.cpp:426] inception_4b/output <- inception_4b/5x5
I0820 09:41:43.779376 10679 net.cpp:426] inception_4b/output <- inception_4b/pool_proj
I0820 09:41:43.779381 10679 net.cpp:400] inception_4b/output -> inception_4b/output
I0820 09:41:43.779418 10679 net.cpp:142] Setting up inception_4b/output
I0820 09:41:43.779427 10679 net.cpp:149] Top shape: 30 512 20 20 (6144000)
I0820 09:41:43.779438 10679 net.cpp:157] Memory required for data: 4206084000
I0820 09:41:43.779443 10679 layer_factory.hpp:77] Creating layer inception_4b/output_inception_4b/output_0_split
I0820 09:41:43.779449 10679 net.cpp:92] Creating Layer inception_4b/output_inception_4b/output_0_split
I0820 09:41:43.779454 10679 net.cpp:426] inception_4b/output_inception_4b/output_0_split <- inception_4b/output
I0820 09:41:43.779469 10679 net.cpp:400] inception_4b/output_inception_4b/output_0_split -> inception_4b/output_inception_4b/output_0_split_0
I0820 09:41:43.779475 10679 net.cpp:400] inception_4b/output_inception_4b/output_0_split -> inception_4b/output_inception_4b/output_0_split_1
I0820 09:41:43.779482 10679 net.cpp:400] inception_4b/output_inception_4b/output_0_split -> inception_4b/output_inception_4b/output_0_split_2
I0820 09:41:43.779501 10679 net.cpp:400] inception_4b/output_inception_4b/output_0_split -> inception_4b/output_inception_4b/output_0_split_3
I0820 09:41:43.779579 10679 net.cpp:142] Setting up inception_4b/output_inception_4b/output_0_split
I0820 09:41:43.779587 10679 net.cpp:149] Top shape: 30 512 20 20 (6144000)
I0820 09:41:43.779600 10679 net.cpp:149] Top shape: 30 512 20 20 (6144000)
I0820 09:41:43.779605 10679 net.cpp:149] Top shape: 30 512 20 20 (6144000)
I0820 09:41:43.779610 10679 net.cpp:149] Top shape: 30 512 20 20 (6144000)
I0820 09:41:43.779614 10679 net.cpp:157] Memory required for data: 4304388000
I0820 09:41:43.779618 10679 layer_factory.hpp:77] Creating layer inception_4c/1x1
I0820 09:41:43.779638 10679 net.cpp:92] Creating Layer inception_4c/1x1
I0820 09:41:43.779642 10679 net.cpp:426] inception_4c/1x1 <- inception_4b/output_inception_4b/output_0_split_0
I0820 09:41:43.779649 10679 net.cpp:400] inception_4c/1x1 -> inception_4c/1x1
I0820 09:41:43.782898 10679 net.cpp:142] Setting up inception_4c/1x1
I0820 09:41:43.782922 10679 net.cpp:149] Top shape: 30 128 20 20 (1536000)
I0820 09:41:43.782928 10679 net.cpp:157] Memory required for data: 4310532000
I0820 09:41:43.782943 10679 layer_factory.hpp:77] Creating layer inception_4c/relu_1x1
I0820 09:41:43.782959 10679 net.cpp:92] Creating Layer inception_4c/relu_1x1
I0820 09:41:43.782964 10679 net.cpp:426] inception_4c/relu_1x1 <- inception_4c/1x1
I0820 09:41:43.782971 10679 net.cpp:387] inception_4c/relu_1x1 -> inception_4c/1x1 (in-place)
I0820 09:41:43.783257 10679 net.cpp:142] Setting up inception_4c/relu_1x1
I0820 09:41:43.783287 10679 net.cpp:149] Top shape: 30 128 20 20 (1536000)
I0820 09:41:43.783291 10679 net.cpp:157] Memory required for data: 4316676000
I0820 09:41:43.783296 10679 layer_factory.hpp:77] Creating layer inception_4c/3x3_reduce
I0820 09:41:43.783315 10679 net.cpp:92] Creating Layer inception_4c/3x3_reduce
I0820 09:41:43.783320 10679 net.cpp:426] inception_4c/3x3_reduce <- inception_4b/output_inception_4b/output_0_split_1
I0820 09:41:43.783349 10679 net.cpp:400] inception_4c/3x3_reduce -> inception_4c/3x3_reduce
I0820 09:41:43.784607 10679 net.cpp:142] Setting up inception_4c/3x3_reduce
I0820 09:41:43.784634 10679 net.cpp:149] Top shape: 30 128 20 20 (1536000)
I0820 09:41:43.784641 10679 net.cpp:157] Memory required for data: 4322820000
I0820 09:41:43.784657 10679 layer_factory.hpp:77] Creating layer inception_4c/relu_3x3_reduce
I0820 09:41:43.784663 10679 net.cpp:92] Creating Layer inception_4c/relu_3x3_reduce
I0820 09:41:43.784669 10679 net.cpp:426] inception_4c/relu_3x3_reduce <- inception_4c/3x3_reduce
I0820 09:41:43.784685 10679 net.cpp:387] inception_4c/relu_3x3_reduce -> inception_4c/3x3_reduce (in-place)
I0820 09:41:43.784847 10679 net.cpp:142] Setting up inception_4c/relu_3x3_reduce
I0820 09:41:43.784867 10679 net.cpp:149] Top shape: 30 128 20 20 (1536000)
I0820 09:41:43.784871 10679 net.cpp:157] Memory required for data: 4328964000
I0820 09:41:43.784875 10679 layer_factory.hpp:77] Creating layer inception_4c/3x3
I0820 09:41:43.784893 10679 net.cpp:92] Creating Layer inception_4c/3x3
I0820 09:41:43.784898 10679 net.cpp:426] inception_4c/3x3 <- inception_4c/3x3_reduce
I0820 09:41:43.784905 10679 net.cpp:400] inception_4c/3x3 -> inception_4c/3x3
I0820 09:41:43.787705 10679 net.cpp:142] Setting up inception_4c/3x3
I0820 09:41:43.787721 10679 net.cpp:149] Top shape: 30 256 20 20 (3072000)
I0820 09:41:43.787726 10679 net.cpp:157] Memory required for data: 4341252000
I0820 09:41:43.787741 10679 layer_factory.hpp:77] Creating layer inception_4c/relu_3x3
I0820 09:41:43.787757 10679 net.cpp:92] Creating Layer inception_4c/relu_3x3
I0820 09:41:43.787763 10679 net.cpp:426] inception_4c/relu_3x3 <- inception_4c/3x3
I0820 09:41:43.787770 10679 net.cpp:387] inception_4c/relu_3x3 -> inception_4c/3x3 (in-place)
I0820 09:41:43.787941 10679 net.cpp:142] Setting up inception_4c/relu_3x3
I0820 09:41:43.787961 10679 net.cpp:149] Top shape: 30 256 20 20 (3072000)
I0820 09:41:43.787966 10679 net.cpp:157] Memory required for data: 4353540000
I0820 09:41:43.787974 10679 layer_factory.hpp:77] Creating layer inception_4c/5x5_reduce
I0820 09:41:43.787999 10679 net.cpp:92] Creating Layer inception_4c/5x5_reduce
I0820 09:41:43.788005 10679 net.cpp:426] inception_4c/5x5_reduce <- inception_4b/output_inception_4b/output_0_split_2
I0820 09:41:43.788022 10679 net.cpp:400] inception_4c/5x5_reduce -> inception_4c/5x5_reduce
I0820 09:41:43.789031 10679 net.cpp:142] Setting up inception_4c/5x5_reduce
I0820 09:41:43.789062 10679 net.cpp:149] Top shape: 30 24 20 20 (288000)
I0820 09:41:43.789067 10679 net.cpp:157] Memory required for data: 4354692000
I0820 09:41:43.789093 10679 layer_factory.hpp:77] Creating layer inception_4c/relu_5x5_reduce
I0820 09:41:43.789100 10679 net.cpp:92] Creating Layer inception_4c/relu_5x5_reduce
I0820 09:41:43.789113 10679 net.cpp:426] inception_4c/relu_5x5_reduce <- inception_4c/5x5_reduce
I0820 09:41:43.789129 10679 net.cpp:387] inception_4c/relu_5x5_reduce -> inception_4c/5x5_reduce (in-place)
I0820 09:41:43.789407 10679 net.cpp:142] Setting up inception_4c/relu_5x5_reduce
I0820 09:41:43.789436 10679 net.cpp:149] Top shape: 30 24 20 20 (288000)
I0820 09:41:43.789440 10679 net.cpp:157] Memory required for data: 4355844000
I0820 09:41:43.789445 10679 layer_factory.hpp:77] Creating layer inception_4c/5x5
I0820 09:41:43.789463 10679 net.cpp:92] Creating Layer inception_4c/5x5
I0820 09:41:43.789469 10679 net.cpp:426] inception_4c/5x5 <- inception_4c/5x5_reduce
I0820 09:41:43.789485 10679 net.cpp:400] inception_4c/5x5 -> inception_4c/5x5
I0820 09:41:43.790699 10679 net.cpp:142] Setting up inception_4c/5x5
I0820 09:41:43.790731 10679 net.cpp:149] Top shape: 30 64 20 20 (768000)
I0820 09:41:43.790736 10679 net.cpp:157] Memory required for data: 4358916000
I0820 09:41:43.790751 10679 layer_factory.hpp:77] Creating layer inception_4c/relu_5x5
I0820 09:41:43.790758 10679 net.cpp:92] Creating Layer inception_4c/relu_5x5
I0820 09:41:43.790763 10679 net.cpp:426] inception_4c/relu_5x5 <- inception_4c/5x5
I0820 09:41:43.790769 10679 net.cpp:387] inception_4c/relu_5x5 -> inception_4c/5x5 (in-place)
I0820 09:41:43.790921 10679 net.cpp:142] Setting up inception_4c/relu_5x5
I0820 09:41:43.790940 10679 net.cpp:149] Top shape: 30 64 20 20 (768000)
I0820 09:41:43.790944 10679 net.cpp:157] Memory required for data: 4361988000
I0820 09:41:43.790949 10679 layer_factory.hpp:77] Creating layer inception_4c/pool
I0820 09:41:43.790966 10679 net.cpp:92] Creating Layer inception_4c/pool
I0820 09:41:43.790990 10679 net.cpp:426] inception_4c/pool <- inception_4b/output_inception_4b/output_0_split_3
I0820 09:41:43.790997 10679 net.cpp:400] inception_4c/pool -> inception_4c/pool
I0820 09:41:43.791049 10679 net.cpp:142] Setting up inception_4c/pool
I0820 09:41:43.791065 10679 net.cpp:149] Top shape: 30 512 20 20 (6144000)
I0820 09:41:43.791070 10679 net.cpp:157] Memory required for data: 4386564000
I0820 09:41:43.791074 10679 layer_factory.hpp:77] Creating layer inception_4c/pool_proj
I0820 09:41:43.791092 10679 net.cpp:92] Creating Layer inception_4c/pool_proj
I0820 09:41:43.791097 10679 net.cpp:426] inception_4c/pool_proj <- inception_4c/pool
I0820 09:41:43.791105 10679 net.cpp:400] inception_4c/pool_proj -> inception_4c/pool_proj
I0820 09:41:43.792829 10679 net.cpp:142] Setting up inception_4c/pool_proj
I0820 09:41:43.792851 10679 net.cpp:149] Top shape: 30 64 20 20 (768000)
I0820 09:41:43.792856 10679 net.cpp:157] Memory required for data: 4389636000
I0820 09:41:43.792865 10679 layer_factory.hpp:77] Creating layer inception_4c/relu_pool_proj
I0820 09:41:43.792878 10679 net.cpp:92] Creating Layer inception_4c/relu_pool_proj
I0820 09:41:43.792891 10679 net.cpp:426] inception_4c/relu_pool_proj <- inception_4c/pool_proj
I0820 09:41:43.792907 10679 net.cpp:387] inception_4c/relu_pool_proj -> inception_4c/pool_proj (in-place)
I0820 09:41:43.793056 10679 net.cpp:142] Setting up inception_4c/relu_pool_proj
I0820 09:41:43.793066 10679 net.cpp:149] Top shape: 30 64 20 20 (768000)
I0820 09:41:43.793071 10679 net.cpp:157] Memory required for data: 4392708000
I0820 09:41:43.793087 10679 layer_factory.hpp:77] Creating layer inception_4c/output
I0820 09:41:43.793117 10679 net.cpp:92] Creating Layer inception_4c/output
I0820 09:41:43.793121 10679 net.cpp:426] inception_4c/output <- inception_4c/1x1
I0820 09:41:43.793128 10679 net.cpp:426] inception_4c/output <- inception_4c/3x3
I0820 09:41:43.793133 10679 net.cpp:426] inception_4c/output <- inception_4c/5x5
I0820 09:41:43.793138 10679 net.cpp:426] inception_4c/output <- inception_4c/pool_proj
I0820 09:41:43.793143 10679 net.cpp:400] inception_4c/output -> inception_4c/output
I0820 09:41:43.793186 10679 net.cpp:142] Setting up inception_4c/output
I0820 09:41:43.793195 10679 net.cpp:149] Top shape: 30 512 20 20 (6144000)
I0820 09:41:43.793198 10679 net.cpp:157] Memory required for data: 4417284000
I0820 09:41:43.793203 10679 layer_factory.hpp:77] Creating layer inception_4c/output_inception_4c/output_0_split
I0820 09:41:43.793210 10679 net.cpp:92] Creating Layer inception_4c/output_inception_4c/output_0_split
I0820 09:41:43.793215 10679 net.cpp:426] inception_4c/output_inception_4c/output_0_split <- inception_4c/output
I0820 09:41:43.793229 10679 net.cpp:400] inception_4c/output_inception_4c/output_0_split -> inception_4c/output_inception_4c/output_0_split_0
I0820 09:41:43.793244 10679 net.cpp:400] inception_4c/output_inception_4c/output_0_split -> inception_4c/output_inception_4c/output_0_split_1
I0820 09:41:43.793251 10679 net.cpp:400] inception_4c/output_inception_4c/output_0_split -> inception_4c/output_inception_4c/output_0_split_2
I0820 09:41:43.793256 10679 net.cpp:400] inception_4c/output_inception_4c/output_0_split -> inception_4c/output_inception_4c/output_0_split_3
I0820 09:41:43.793321 10679 net.cpp:142] Setting up inception_4c/output_inception_4c/output_0_split
I0820 09:41:43.793330 10679 net.cpp:149] Top shape: 30 512 20 20 (6144000)
I0820 09:41:43.793335 10679 net.cpp:149] Top shape: 30 512 20 20 (6144000)
I0820 09:41:43.793340 10679 net.cpp:149] Top shape: 30 512 20 20 (6144000)
I0820 09:41:43.793345 10679 net.cpp:149] Top shape: 30 512 20 20 (6144000)
I0820 09:41:43.793349 10679 net.cpp:157] Memory required for data: 4515588000
I0820 09:41:43.793354 10679 layer_factory.hpp:77] Creating layer inception_4d/1x1
I0820 09:41:43.793373 10679 net.cpp:92] Creating Layer inception_4d/1x1
I0820 09:41:43.793380 10679 net.cpp:426] inception_4d/1x1 <- inception_4c/output_inception_4c/output_0_split_0
I0820 09:41:43.793387 10679 net.cpp:400] inception_4d/1x1 -> inception_4d/1x1
I0820 09:41:43.794641 10679 net.cpp:142] Setting up inception_4d/1x1
I0820 09:41:43.794672 10679 net.cpp:149] Top shape: 30 112 20 20 (1344000)
I0820 09:41:43.794677 10679 net.cpp:157] Memory required for data: 4520964000
I0820 09:41:43.794692 10679 layer_factory.hpp:77] Creating layer inception_4d/relu_1x1
I0820 09:41:43.794710 10679 net.cpp:92] Creating Layer inception_4d/relu_1x1
I0820 09:41:43.794716 10679 net.cpp:426] inception_4d/relu_1x1 <- inception_4d/1x1
I0820 09:41:43.794723 10679 net.cpp:387] inception_4d/relu_1x1 -> inception_4d/1x1 (in-place)
I0820 09:41:43.795018 10679 net.cpp:142] Setting up inception_4d/relu_1x1
I0820 09:41:43.795047 10679 net.cpp:149] Top shape: 30 112 20 20 (1344000)
I0820 09:41:43.795053 10679 net.cpp:157] Memory required for data: 4526340000
I0820 09:41:43.795058 10679 layer_factory.hpp:77] Creating layer inception_4d/3x3_reduce
I0820 09:41:43.795076 10679 net.cpp:92] Creating Layer inception_4d/3x3_reduce
I0820 09:41:43.795081 10679 net.cpp:426] inception_4d/3x3_reduce <- inception_4c/output_inception_4c/output_0_split_1
I0820 09:41:43.795089 10679 net.cpp:400] inception_4d/3x3_reduce -> inception_4d/3x3_reduce
I0820 09:41:43.796460 10679 net.cpp:142] Setting up inception_4d/3x3_reduce
I0820 09:41:43.796491 10679 net.cpp:149] Top shape: 30 144 20 20 (1728000)
I0820 09:41:43.796496 10679 net.cpp:157] Memory required for data: 4533252000
I0820 09:41:43.796511 10679 layer_factory.hpp:77] Creating layer inception_4d/relu_3x3_reduce
I0820 09:41:43.796527 10679 net.cpp:92] Creating Layer inception_4d/relu_3x3_reduce
I0820 09:41:43.796533 10679 net.cpp:426] inception_4d/relu_3x3_reduce <- inception_4d/3x3_reduce
I0820 09:41:43.796564 10679 net.cpp:387] inception_4d/relu_3x3_reduce -> inception_4d/3x3_reduce (in-place)
I0820 09:41:43.796720 10679 net.cpp:142] Setting up inception_4d/relu_3x3_reduce
I0820 09:41:43.796757 10679 net.cpp:149] Top shape: 30 144 20 20 (1728000)
I0820 09:41:43.796761 10679 net.cpp:157] Memory required for data: 4540164000
I0820 09:41:43.796766 10679 layer_factory.hpp:77] Creating layer inception_4d/3x3
I0820 09:41:43.796785 10679 net.cpp:92] Creating Layer inception_4d/3x3
I0820 09:41:43.796790 10679 net.cpp:426] inception_4d/3x3 <- inception_4d/3x3_reduce
I0820 09:41:43.796797 10679 net.cpp:400] inception_4d/3x3 -> inception_4d/3x3
I0820 09:41:43.800146 10679 net.cpp:142] Setting up inception_4d/3x3
I0820 09:41:43.800178 10679 net.cpp:149] Top shape: 30 288 20 20 (3456000)
I0820 09:41:43.800182 10679 net.cpp:157] Memory required for data: 4553988000
I0820 09:41:43.800189 10679 layer_factory.hpp:77] Creating layer inception_4d/relu_3x3
I0820 09:41:43.800214 10679 net.cpp:92] Creating Layer inception_4d/relu_3x3
I0820 09:41:43.800220 10679 net.cpp:426] inception_4d/relu_3x3 <- inception_4d/3x3
I0820 09:41:43.800225 10679 net.cpp:387] inception_4d/relu_3x3 -> inception_4d/3x3 (in-place)
I0820 09:41:43.800379 10679 net.cpp:142] Setting up inception_4d/relu_3x3
I0820 09:41:43.800397 10679 net.cpp:149] Top shape: 30 288 20 20 (3456000)
I0820 09:41:43.800402 10679 net.cpp:157] Memory required for data: 4567812000
I0820 09:41:43.800406 10679 layer_factory.hpp:77] Creating layer inception_4d/5x5_reduce
I0820 09:41:43.800424 10679 net.cpp:92] Creating Layer inception_4d/5x5_reduce
I0820 09:41:43.800429 10679 net.cpp:426] inception_4d/5x5_reduce <- inception_4c/output_inception_4c/output_0_split_2
I0820 09:41:43.800446 10679 net.cpp:400] inception_4d/5x5_reduce -> inception_4d/5x5_reduce
I0820 09:41:43.801551 10679 net.cpp:142] Setting up inception_4d/5x5_reduce
I0820 09:41:43.801581 10679 net.cpp:149] Top shape: 30 32 20 20 (384000)
I0820 09:41:43.801586 10679 net.cpp:157] Memory required for data: 4569348000
I0820 09:41:43.801594 10679 layer_factory.hpp:77] Creating layer inception_4d/relu_5x5_reduce
I0820 09:41:43.801607 10679 net.cpp:92] Creating Layer inception_4d/relu_5x5_reduce
I0820 09:41:43.801621 10679 net.cpp:426] inception_4d/relu_5x5_reduce <- inception_4d/5x5_reduce
I0820 09:41:43.801635 10679 net.cpp:387] inception_4d/relu_5x5_reduce -> inception_4d/5x5_reduce (in-place)
I0820 09:41:43.801936 10679 net.cpp:142] Setting up inception_4d/relu_5x5_reduce
I0820 09:41:43.801956 10679 net.cpp:149] Top shape: 30 32 20 20 (384000)
I0820 09:41:43.801970 10679 net.cpp:157] Memory required for data: 4570884000
I0820 09:41:43.801975 10679 layer_factory.hpp:77] Creating layer inception_4d/5x5
I0820 09:41:43.801993 10679 net.cpp:92] Creating Layer inception_4d/5x5
I0820 09:41:43.802000 10679 net.cpp:426] inception_4d/5x5 <- inception_4d/5x5_reduce
I0820 09:41:43.802016 10679 net.cpp:400] inception_4d/5x5 -> inception_4d/5x5
I0820 09:41:43.803367 10679 net.cpp:142] Setting up inception_4d/5x5
I0820 09:41:43.803400 10679 net.cpp:149] Top shape: 30 64 20 20 (768000)
I0820 09:41:43.803406 10679 net.cpp:157] Memory required for data: 4573956000
I0820 09:41:43.803421 10679 layer_factory.hpp:77] Creating layer inception_4d/relu_5x5
I0820 09:41:43.803427 10679 net.cpp:92] Creating Layer inception_4d/relu_5x5
I0820 09:41:43.803441 10679 net.cpp:426] inception_4d/relu_5x5 <- inception_4d/5x5
I0820 09:41:43.803447 10679 net.cpp:387] inception_4d/relu_5x5 -> inception_4d/5x5 (in-place)
I0820 09:41:43.803603 10679 net.cpp:142] Setting up inception_4d/relu_5x5
I0820 09:41:43.803633 10679 net.cpp:149] Top shape: 30 64 20 20 (768000)
I0820 09:41:43.803637 10679 net.cpp:157] Memory required for data: 4577028000
I0820 09:41:43.803642 10679 layer_factory.hpp:77] Creating layer inception_4d/pool
I0820 09:41:43.803649 10679 net.cpp:92] Creating Layer inception_4d/pool
I0820 09:41:43.803663 10679 net.cpp:426] inception_4d/pool <- inception_4c/output_inception_4c/output_0_split_3
I0820 09:41:43.803683 10679 net.cpp:400] inception_4d/pool -> inception_4d/pool
I0820 09:41:43.803748 10679 net.cpp:142] Setting up inception_4d/pool
I0820 09:41:43.803756 10679 net.cpp:149] Top shape: 30 512 20 20 (6144000)
I0820 09:41:43.803768 10679 net.cpp:157] Memory required for data: 4601604000
I0820 09:41:43.803773 10679 layer_factory.hpp:77] Creating layer inception_4d/pool_proj
I0820 09:41:43.803791 10679 net.cpp:92] Creating Layer inception_4d/pool_proj
I0820 09:41:43.803797 10679 net.cpp:426] inception_4d/pool_proj <- inception_4d/pool
I0820 09:41:43.803802 10679 net.cpp:400] inception_4d/pool_proj -> inception_4d/pool_proj
I0820 09:41:43.804903 10679 net.cpp:142] Setting up inception_4d/pool_proj
I0820 09:41:43.804932 10679 net.cpp:149] Top shape: 30 64 20 20 (768000)
I0820 09:41:43.804937 10679 net.cpp:157] Memory required for data: 4604676000
I0820 09:41:43.804952 10679 layer_factory.hpp:77] Creating layer inception_4d/relu_pool_proj
I0820 09:41:43.804968 10679 net.cpp:92] Creating Layer inception_4d/relu_pool_proj
I0820 09:41:43.804975 10679 net.cpp:426] inception_4d/relu_pool_proj <- inception_4d/pool_proj
I0820 09:41:43.804980 10679 net.cpp:387] inception_4d/relu_pool_proj -> inception_4d/pool_proj (in-place)
I0820 09:41:43.805130 10679 net.cpp:142] Setting up inception_4d/relu_pool_proj
I0820 09:41:43.805158 10679 net.cpp:149] Top shape: 30 64 20 20 (768000)
I0820 09:41:43.805163 10679 net.cpp:157] Memory required for data: 4607748000
I0820 09:41:43.805168 10679 layer_factory.hpp:77] Creating layer inception_4d/output
I0820 09:41:43.805176 10679 net.cpp:92] Creating Layer inception_4d/output
I0820 09:41:43.805181 10679 net.cpp:426] inception_4d/output <- inception_4d/1x1
I0820 09:41:43.805186 10679 net.cpp:426] inception_4d/output <- inception_4d/3x3
I0820 09:41:43.805191 10679 net.cpp:426] inception_4d/output <- inception_4d/5x5
I0820 09:41:43.805197 10679 net.cpp:426] inception_4d/output <- inception_4d/pool_proj
I0820 09:41:43.805202 10679 net.cpp:400] inception_4d/output -> inception_4d/output
I0820 09:41:43.805248 10679 net.cpp:142] Setting up inception_4d/output
I0820 09:41:43.805265 10679 net.cpp:149] Top shape: 30 528 20 20 (6336000)
I0820 09:41:43.805269 10679 net.cpp:157] Memory required for data: 4633092000
I0820 09:41:43.805274 10679 layer_factory.hpp:77] Creating layer inception_4d/output_inception_4d/output_0_split
I0820 09:41:43.805281 10679 net.cpp:92] Creating Layer inception_4d/output_inception_4d/output_0_split
I0820 09:41:43.805286 10679 net.cpp:426] inception_4d/output_inception_4d/output_0_split <- inception_4d/output
I0820 09:41:43.805292 10679 net.cpp:400] inception_4d/output_inception_4d/output_0_split -> inception_4d/output_inception_4d/output_0_split_0
I0820 09:41:43.805299 10679 net.cpp:400] inception_4d/output_inception_4d/output_0_split -> inception_4d/output_inception_4d/output_0_split_1
I0820 09:41:43.805322 10679 net.cpp:400] inception_4d/output_inception_4d/output_0_split -> inception_4d/output_inception_4d/output_0_split_2
I0820 09:41:43.805330 10679 net.cpp:400] inception_4d/output_inception_4d/output_0_split -> inception_4d/output_inception_4d/output_0_split_3
I0820 09:41:43.805397 10679 net.cpp:142] Setting up inception_4d/output_inception_4d/output_0_split
I0820 09:41:43.805405 10679 net.cpp:149] Top shape: 30 528 20 20 (6336000)
I0820 09:41:43.805410 10679 net.cpp:149] Top shape: 30 528 20 20 (6336000)
I0820 09:41:43.805415 10679 net.cpp:149] Top shape: 30 528 20 20 (6336000)
I0820 09:41:43.805420 10679 net.cpp:149] Top shape: 30 528 20 20 (6336000)
I0820 09:41:43.805424 10679 net.cpp:157] Memory required for data: 4734468000
I0820 09:41:43.805428 10679 layer_factory.hpp:77] Creating layer inception_4e/1x1
I0820 09:41:43.805447 10679 net.cpp:92] Creating Layer inception_4e/1x1
I0820 09:41:43.805470 10679 net.cpp:426] inception_4e/1x1 <- inception_4d/output_inception_4d/output_0_split_0
I0820 09:41:43.805477 10679 net.cpp:400] inception_4e/1x1 -> inception_4e/1x1
I0820 09:41:43.807521 10679 net.cpp:142] Setting up inception_4e/1x1
I0820 09:41:43.807559 10679 net.cpp:149] Top shape: 30 256 20 20 (3072000)
I0820 09:41:43.807577 10679 net.cpp:157] Memory required for data: 4746756000
I0820 09:41:43.807585 10679 layer_factory.hpp:77] Creating layer inception_4e/relu_1x1
I0820 09:41:43.807600 10679 net.cpp:92] Creating Layer inception_4e/relu_1x1
I0820 09:41:43.807606 10679 net.cpp:426] inception_4e/relu_1x1 <- inception_4e/1x1
I0820 09:41:43.807612 10679 net.cpp:387] inception_4e/relu_1x1 -> inception_4e/1x1 (in-place)
I0820 09:41:43.807915 10679 net.cpp:142] Setting up inception_4e/relu_1x1
I0820 09:41:43.807945 10679 net.cpp:149] Top shape: 30 256 20 20 (3072000)
I0820 09:41:43.807950 10679 net.cpp:157] Memory required for data: 4759044000
I0820 09:41:43.807955 10679 layer_factory.hpp:77] Creating layer inception_4e/3x3_reduce
I0820 09:41:43.807973 10679 net.cpp:92] Creating Layer inception_4e/3x3_reduce
I0820 09:41:43.807978 10679 net.cpp:426] inception_4e/3x3_reduce <- inception_4d/output_inception_4d/output_0_split_1
I0820 09:41:43.807993 10679 net.cpp:400] inception_4e/3x3_reduce -> inception_4e/3x3_reduce
I0820 09:41:43.809461 10679 net.cpp:142] Setting up inception_4e/3x3_reduce
I0820 09:41:43.809491 10679 net.cpp:149] Top shape: 30 160 20 20 (1920000)
I0820 09:41:43.809496 10679 net.cpp:157] Memory required for data: 4766724000
I0820 09:41:43.809504 10679 layer_factory.hpp:77] Creating layer inception_4e/relu_3x3_reduce
I0820 09:41:43.809520 10679 net.cpp:92] Creating Layer inception_4e/relu_3x3_reduce
I0820 09:41:43.809525 10679 net.cpp:426] inception_4e/relu_3x3_reduce <- inception_4e/3x3_reduce
I0820 09:41:43.809551 10679 net.cpp:387] inception_4e/relu_3x3_reduce -> inception_4e/3x3_reduce (in-place)
I0820 09:41:43.809707 10679 net.cpp:142] Setting up inception_4e/relu_3x3_reduce
I0820 09:41:43.809725 10679 net.cpp:149] Top shape: 30 160 20 20 (1920000)
I0820 09:41:43.809731 10679 net.cpp:157] Memory required for data: 4774404000
I0820 09:41:43.809734 10679 layer_factory.hpp:77] Creating layer inception_4e/3x3
I0820 09:41:43.809756 10679 net.cpp:92] Creating Layer inception_4e/3x3
I0820 09:41:43.809762 10679 net.cpp:426] inception_4e/3x3 <- inception_4e/3x3_reduce
I0820 09:41:43.809769 10679 net.cpp:400] inception_4e/3x3 -> inception_4e/3x3
I0820 09:41:43.813511 10679 net.cpp:142] Setting up inception_4e/3x3
I0820 09:41:43.813541 10679 net.cpp:149] Top shape: 30 320 20 20 (3840000)
I0820 09:41:43.813546 10679 net.cpp:157] Memory required for data: 4789764000
I0820 09:41:43.813554 10679 layer_factory.hpp:77] Creating layer inception_4e/relu_3x3
I0820 09:41:43.813570 10679 net.cpp:92] Creating Layer inception_4e/relu_3x3
I0820 09:41:43.813576 10679 net.cpp:426] inception_4e/relu_3x3 <- inception_4e/3x3
I0820 09:41:43.813582 10679 net.cpp:387] inception_4e/relu_3x3 -> inception_4e/3x3 (in-place)
I0820 09:41:43.813735 10679 net.cpp:142] Setting up inception_4e/relu_3x3
I0820 09:41:43.813753 10679 net.cpp:149] Top shape: 30 320 20 20 (3840000)
I0820 09:41:43.813757 10679 net.cpp:157] Memory required for data: 4805124000
I0820 09:41:43.813762 10679 layer_factory.hpp:77] Creating layer inception_4e/5x5_reduce
I0820 09:41:43.813784 10679 net.cpp:92] Creating Layer inception_4e/5x5_reduce
I0820 09:41:43.813789 10679 net.cpp:426] inception_4e/5x5_reduce <- inception_4d/output_inception_4d/output_0_split_2
I0820 09:41:43.813807 10679 net.cpp:400] inception_4e/5x5_reduce -> inception_4e/5x5_reduce
I0820 09:41:43.814919 10679 net.cpp:142] Setting up inception_4e/5x5_reduce
I0820 09:41:43.814949 10679 net.cpp:149] Top shape: 30 32 20 20 (384000)
I0820 09:41:43.814955 10679 net.cpp:157] Memory required for data: 4806660000
I0820 09:41:43.814970 10679 layer_factory.hpp:77] Creating layer inception_4e/relu_5x5_reduce
I0820 09:41:43.814986 10679 net.cpp:92] Creating Layer inception_4e/relu_5x5_reduce
I0820 09:41:43.814992 10679 net.cpp:426] inception_4e/relu_5x5_reduce <- inception_4e/5x5_reduce
I0820 09:41:43.814998 10679 net.cpp:387] inception_4e/relu_5x5_reduce -> inception_4e/5x5_reduce (in-place)
I0820 09:41:43.815294 10679 net.cpp:142] Setting up inception_4e/relu_5x5_reduce
I0820 09:41:43.815325 10679 net.cpp:149] Top shape: 30 32 20 20 (384000)
I0820 09:41:43.815362 10679 net.cpp:157] Memory required for data: 4808196000
I0820 09:41:43.815367 10679 layer_factory.hpp:77] Creating layer inception_4e/5x5
I0820 09:41:43.815387 10679 net.cpp:92] Creating Layer inception_4e/5x5
I0820 09:41:43.815392 10679 net.cpp:426] inception_4e/5x5 <- inception_4e/5x5_reduce
I0820 09:41:43.815399 10679 net.cpp:400] inception_4e/5x5 -> inception_4e/5x5
I0820 09:41:43.817297 10679 net.cpp:142] Setting up inception_4e/5x5
I0820 09:41:43.817328 10679 net.cpp:149] Top shape: 30 128 20 20 (1536000)
I0820 09:41:43.817333 10679 net.cpp:157] Memory required for data: 4814340000
I0820 09:41:43.817348 10679 layer_factory.hpp:77] Creating layer inception_4e/relu_5x5
I0820 09:41:43.817380 10679 net.cpp:92] Creating Layer inception_4e/relu_5x5
I0820 09:41:43.817386 10679 net.cpp:426] inception_4e/relu_5x5 <- inception_4e/5x5
I0820 09:41:43.817394 10679 net.cpp:387] inception_4e/relu_5x5 -> inception_4e/5x5 (in-place)
I0820 09:41:43.817561 10679 net.cpp:142] Setting up inception_4e/relu_5x5
I0820 09:41:43.817579 10679 net.cpp:149] Top shape: 30 128 20 20 (1536000)
I0820 09:41:43.817584 10679 net.cpp:157] Memory required for data: 4820484000
I0820 09:41:43.817589 10679 layer_factory.hpp:77] Creating layer inception_4e/pool
I0820 09:41:43.817605 10679 net.cpp:92] Creating Layer inception_4e/pool
I0820 09:41:43.817610 10679 net.cpp:426] inception_4e/pool <- inception_4d/output_inception_4d/output_0_split_3
I0820 09:41:43.817617 10679 net.cpp:400] inception_4e/pool -> inception_4e/pool
I0820 09:41:43.817670 10679 net.cpp:142] Setting up inception_4e/pool
I0820 09:41:43.817678 10679 net.cpp:149] Top shape: 30 528 20 20 (6336000)
I0820 09:41:43.817690 10679 net.cpp:157] Memory required for data: 4845828000
I0820 09:41:43.817695 10679 layer_factory.hpp:77] Creating layer inception_4e/pool_proj
I0820 09:41:43.817713 10679 net.cpp:92] Creating Layer inception_4e/pool_proj
I0820 09:41:43.817718 10679 net.cpp:426] inception_4e/pool_proj <- inception_4e/pool
I0820 09:41:43.817724 10679 net.cpp:400] inception_4e/pool_proj -> inception_4e/pool_proj
I0820 09:41:43.819023 10679 net.cpp:142] Setting up inception_4e/pool_proj
I0820 09:41:43.819038 10679 net.cpp:149] Top shape: 30 128 20 20 (1536000)
I0820 09:41:43.819067 10679 net.cpp:157] Memory required for data: 4851972000
I0820 09:41:43.819074 10679 layer_factory.hpp:77] Creating layer inception_4e/relu_pool_proj
I0820 09:41:43.819082 10679 net.cpp:92] Creating Layer inception_4e/relu_pool_proj
I0820 09:41:43.819088 10679 net.cpp:426] inception_4e/relu_pool_proj <- inception_4e/pool_proj
I0820 09:41:43.819095 10679 net.cpp:387] inception_4e/relu_pool_proj -> inception_4e/pool_proj (in-place)
I0820 09:41:43.819254 10679 net.cpp:142] Setting up inception_4e/relu_pool_proj
I0820 09:41:43.819272 10679 net.cpp:149] Top shape: 30 128 20 20 (1536000)
I0820 09:41:43.819278 10679 net.cpp:157] Memory required for data: 4858116000
I0820 09:41:43.819283 10679 layer_factory.hpp:77] Creating layer inception_4e/output
I0820 09:41:43.819289 10679 net.cpp:92] Creating Layer inception_4e/output
I0820 09:41:43.819303 10679 net.cpp:426] inception_4e/output <- inception_4e/1x1
I0820 09:41:43.819308 10679 net.cpp:426] inception_4e/output <- inception_4e/3x3
I0820 09:41:43.819314 10679 net.cpp:426] inception_4e/output <- inception_4e/5x5
I0820 09:41:43.819319 10679 net.cpp:426] inception_4e/output <- inception_4e/pool_proj
I0820 09:41:43.819324 10679 net.cpp:400] inception_4e/output -> inception_4e/output
I0820 09:41:43.819365 10679 net.cpp:142] Setting up inception_4e/output
I0820 09:41:43.819373 10679 net.cpp:149] Top shape: 30 832 20 20 (9984000)
I0820 09:41:43.819386 10679 net.cpp:157] Memory required for data: 4898052000
I0820 09:41:43.819391 10679 layer_factory.hpp:77] Creating layer conv6_1
I0820 09:41:43.819406 10679 net.cpp:92] Creating Layer conv6_1
I0820 09:41:43.819412 10679 net.cpp:426] conv6_1 <- inception_4e/output
I0820 09:41:43.819420 10679 net.cpp:400] conv6_1 -> conv6_1
I0820 09:41:43.820482 10679 net.cpp:142] Setting up conv6_1
I0820 09:41:43.820516 10679 net.cpp:149] Top shape: 30 1 20 20 (12000)
I0820 09:41:43.820528 10679 net.cpp:157] Memory required for data: 4898100000
I0820 09:41:43.820544 10679 layer_factory.hpp:77] Creating layer relu_conv6
I0820 09:41:43.820550 10679 net.cpp:92] Creating Layer relu_conv6
I0820 09:41:43.820556 10679 net.cpp:426] relu_conv6 <- conv6_1
I0820 09:41:43.820572 10679 net.cpp:387] relu_conv6 -> conv6_1 (in-place)
I0820 09:41:43.820879 10679 net.cpp:142] Setting up relu_conv6
I0820 09:41:43.820907 10679 net.cpp:149] Top shape: 30 1 20 20 (12000)
I0820 09:41:43.820912 10679 net.cpp:157] Memory required for data: 4898148000
I0820 09:41:43.820917 10679 layer_factory.hpp:77] Creating layer tile
I0820 09:41:43.820925 10679 net.cpp:92] Creating Layer tile
I0820 09:41:43.820930 10679 net.cpp:426] tile <- conv6_1
I0820 09:41:43.820948 10679 net.cpp:400] tile -> tiled_highfeatures
I0820 09:41:43.820998 10679 net.cpp:142] Setting up tile
I0820 09:41:43.821014 10679 net.cpp:149] Top shape: 30 50 20 20 (600000)
I0820 09:41:43.821018 10679 net.cpp:157] Memory required for data: 4900548000
I0820 09:41:43.821023 10679 layer_factory.hpp:77] Creating layer reshape
I0820 09:41:43.821039 10679 net.cpp:92] Creating Layer reshape
I0820 09:41:43.821044 10679 net.cpp:426] reshape <- tiled_highfeatures
I0820 09:41:43.821059 10679 net.cpp:400] reshape -> reshaped_highfeatures
I0820 09:41:43.821100 10679 net.cpp:142] Setting up reshape
I0820 09:41:43.821117 10679 net.cpp:149] Top shape: 1500 1 20 20 (600000)
I0820 09:41:43.821121 10679 net.cpp:157] Memory required for data: 4902948000
I0820 09:41:43.821125 10679 layer_factory.hpp:77] Creating layer concat
I0820 09:41:43.821133 10679 net.cpp:92] Creating Layer concat
I0820 09:41:43.821140 10679 net.cpp:426] concat <- region_conv3
I0820 09:41:43.821144 10679 net.cpp:426] concat <- reshaped_highfeatures
I0820 09:41:43.821151 10679 net.cpp:400] concat -> concat_features
I0820 09:41:43.821187 10679 net.cpp:142] Setting up concat
I0820 09:41:43.821194 10679 net.cpp:149] Top shape: 1500 4 20 20 (2400000)
I0820 09:41:43.821199 10679 net.cpp:157] Memory required for data: 4912548000
I0820 09:41:43.821203 10679 layer_factory.hpp:77] Creating layer compression1
I0820 09:41:43.821221 10679 net.cpp:92] Creating Layer compression1
I0820 09:41:43.821226 10679 net.cpp:426] compression1 <- concat_features
I0820 09:41:43.821240 10679 net.cpp:400] compression1 -> comp1
I0820 09:41:43.822249 10679 net.cpp:142] Setting up compression1
I0820 09:41:43.822279 10679 net.cpp:149] Top shape: 1500 100 20 20 (60000000)
I0820 09:41:43.822284 10679 net.cpp:157] Memory required for data: 5152548000
I0820 09:41:43.822299 10679 layer_factory.hpp:77] Creating layer comp1_bn
I0820 09:41:43.822316 10679 net.cpp:92] Creating Layer comp1_bn
I0820 09:41:43.822322 10679 net.cpp:426] comp1_bn <- comp1
I0820 09:41:43.822336 10679 net.cpp:387] comp1_bn -> comp1 (in-place)
I0820 09:41:43.822569 10679 net.cpp:142] Setting up comp1_bn
I0820 09:41:43.822578 10679 net.cpp:149] Top shape: 1500 100 20 20 (60000000)
I0820 09:41:43.822584 10679 net.cpp:157] Memory required for data: 5392548000
I0820 09:41:43.822600 10679 layer_factory.hpp:77] Creating layer relu_comp1
I0820 09:41:43.822618 10679 net.cpp:92] Creating Layer relu_comp1
I0820 09:41:43.822623 10679 net.cpp:426] relu_comp1 <- comp1
I0820 09:41:43.822630 10679 net.cpp:387] relu_comp1 -> comp1 (in-place)
I0820 09:41:43.822805 10679 net.cpp:142] Setting up relu_comp1
I0820 09:41:43.822818 10679 net.cpp:149] Top shape: 1500 100 20 20 (60000000)
I0820 09:41:43.822823 10679 net.cpp:157] Memory required for data: 5632548000
I0820 09:41:43.822827 10679 layer_factory.hpp:77] Creating layer compression2
I0820 09:41:43.822846 10679 net.cpp:92] Creating Layer compression2
I0820 09:41:43.822852 10679 net.cpp:426] compression2 <- comp1
I0820 09:41:43.822860 10679 net.cpp:400] compression2 -> comp2
I0820 09:41:43.824327 10679 net.cpp:142] Setting up compression2
I0820 09:41:43.824358 10679 net.cpp:149] Top shape: 1500 100 20 20 (60000000)
I0820 09:41:43.824375 10679 net.cpp:157] Memory required for data: 5872548000
I0820 09:41:43.824404 10679 layer_factory.hpp:77] Creating layer comp2_bn
I0820 09:41:43.824420 10679 net.cpp:92] Creating Layer comp2_bn
I0820 09:41:43.824426 10679 net.cpp:426] comp2_bn <- comp2
I0820 09:41:43.824441 10679 net.cpp:387] comp2_bn -> comp2 (in-place)
I0820 09:41:43.824656 10679 net.cpp:142] Setting up comp2_bn
I0820 09:41:43.824673 10679 net.cpp:149] Top shape: 1500 100 20 20 (60000000)
I0820 09:41:43.824677 10679 net.cpp:157] Memory required for data: 6112548000
I0820 09:41:43.824693 10679 layer_factory.hpp:77] Creating layer relu_comp2
I0820 09:41:43.824709 10679 net.cpp:92] Creating Layer relu_comp2
I0820 09:41:43.824715 10679 net.cpp:426] relu_comp2 <- comp2
I0820 09:41:43.824720 10679 net.cpp:387] relu_comp2 -> comp2 (in-place)
I0820 09:41:43.824882 10679 net.cpp:142] Setting up relu_comp2
I0820 09:41:43.824899 10679 net.cpp:149] Top shape: 1500 100 20 20 (60000000)
I0820 09:41:43.824904 10679 net.cpp:157] Memory required for data: 6352548000
I0820 09:41:43.824909 10679 layer_factory.hpp:77] Creating layer compression3
I0820 09:41:43.824928 10679 net.cpp:92] Creating Layer compression3
I0820 09:41:43.824933 10679 net.cpp:426] compression3 <- comp2
I0820 09:41:43.824949 10679 net.cpp:400] compression3 -> comp3
I0820 09:41:43.826071 10679 net.cpp:142] Setting up compression3
I0820 09:41:43.826100 10679 net.cpp:149] Top shape: 1500 1 20 20 (600000)
I0820 09:41:43.826107 10679 net.cpp:157] Memory required for data: 6354948000
I0820 09:41:43.826120 10679 layer_factory.hpp:77] Creating layer comp3_bn
I0820 09:41:43.826138 10679 net.cpp:92] Creating Layer comp3_bn
I0820 09:41:43.826143 10679 net.cpp:426] comp3_bn <- comp3
I0820 09:41:43.826148 10679 net.cpp:387] comp3_bn -> comp3 (in-place)
I0820 09:41:43.826355 10679 net.cpp:142] Setting up comp3_bn
I0820 09:41:43.826369 10679 net.cpp:149] Top shape: 1500 1 20 20 (600000)
I0820 09:41:43.826378 10679 net.cpp:157] Memory required for data: 6357348000
I0820 09:41:43.826388 10679 layer_factory.hpp:77] Creating layer relu_comp3
I0820 09:41:43.826395 10679 net.cpp:92] Creating Layer relu_comp3
I0820 09:41:43.826400 10679 net.cpp:426] relu_comp3 <- comp3
I0820 09:41:43.826416 10679 net.cpp:387] relu_comp3 -> comp3 (in-place)
I0820 09:41:43.826745 10679 net.cpp:142] Setting up relu_comp3
I0820 09:41:43.826772 10679 net.cpp:149] Top shape: 1500 1 20 20 (600000)
I0820 09:41:43.826777 10679 net.cpp:157] Memory required for data: 6359748000
I0820 09:41:43.826782 10679 layer_factory.hpp:77] Creating layer concat_ip3
I0820 09:41:43.826805 10679 net.cpp:92] Creating Layer concat_ip3
I0820 09:41:43.826812 10679 net.cpp:426] concat_ip3 <- comp3
I0820 09:41:43.826828 10679 net.cpp:400] concat_ip3 -> concat_ip3
I0820 09:41:43.826959 10679 net.cpp:142] Setting up concat_ip3
I0820 09:41:43.826970 10679 net.cpp:149] Top shape: 1500 1 (1500)
I0820 09:41:43.826975 10679 net.cpp:157] Memory required for data: 6359754000
I0820 09:41:43.826982 10679 layer_factory.hpp:77] Creating layer concat_ip3_concat_ip3_0_split
I0820 09:41:43.826989 10679 net.cpp:92] Creating Layer concat_ip3_concat_ip3_0_split
I0820 09:41:43.826994 10679 net.cpp:426] concat_ip3_concat_ip3_0_split <- concat_ip3
I0820 09:41:43.827002 10679 net.cpp:400] concat_ip3_concat_ip3_0_split -> concat_ip3_concat_ip3_0_split_0
I0820 09:41:43.827016 10679 net.cpp:400] concat_ip3_concat_ip3_0_split -> concat_ip3_concat_ip3_0_split_1
I0820 09:41:43.827066 10679 net.cpp:142] Setting up concat_ip3_concat_ip3_0_split
I0820 09:41:43.827082 10679 net.cpp:149] Top shape: 1500 1 (1500)
I0820 09:41:43.827088 10679 net.cpp:149] Top shape: 1500 1 (1500)
I0820 09:41:43.827092 10679 net.cpp:157] Memory required for data: 6359766000
I0820 09:41:43.827096 10679 layer_factory.hpp:77] Creating layer loss
I0820 09:41:43.827112 10679 net.cpp:92] Creating Layer loss
I0820 09:41:43.827117 10679 net.cpp:426] loss <- concat_ip3_concat_ip3_0_split_0
I0820 09:41:43.827123 10679 net.cpp:426] loss <- region_labels_initial_low_1_split_0
I0820 09:41:43.827138 10679 net.cpp:400] loss -> loss
I0820 09:41:43.827198 10679 net.cpp:142] Setting up loss
I0820 09:41:43.827220 10679 net.cpp:149] Top shape: (1)
I0820 09:41:43.827225 10679 net.cpp:152]     with loss weight 1
I0820 09:41:43.827249 10679 net.cpp:157] Memory required for data: 6359766004
I0820 09:41:43.827253 10679 layer_factory.hpp:77] Creating layer loss
I0820 09:41:43.827260 10679 net.cpp:92] Creating Layer loss
I0820 09:41:43.827265 10679 net.cpp:426] loss <- concat_ip3_concat_ip3_0_split_1
I0820 09:41:43.827270 10679 net.cpp:400] loss -> concat_sigmoid
I0820 09:41:43.827450 10679 net.cpp:142] Setting up loss
I0820 09:41:43.827468 10679 net.cpp:149] Top shape: 1500 1 (1500)
I0820 09:41:43.827473 10679 net.cpp:157] Memory required for data: 6359772004
I0820 09:41:43.827478 10679 layer_factory.hpp:77] Creating layer loss
I0820 09:41:43.827492 10679 net.cpp:92] Creating Layer loss
I0820 09:41:43.827497 10679 net.cpp:426] loss <- concat_sigmoid
I0820 09:41:43.827503 10679 net.cpp:426] loss <- region_labels_initial_low_1_split_1
I0820 09:41:43.827520 10679 net.cpp:400] loss -> euclidean_loss
…
    mirror: false
    mean_value: 104
    mean_value: 117
    mean_value: 123
  }
  image_data_param {
    source: "../../asd_list.txt"
    batch_size: 1
    shuffle: false
    new_height: 324
    new_width: 324
  }
}
layer {
  name: "labeldata"
  type: "ImageData"
  top: "label"
  top: "fakelabel2"
  include {
    phase: TEST
  }
  transform_param {
    scale: 0.0039215684
    mirror: false
  }
  image_data_param {
    source: "../../asd_label.txt"
    batch_size: 1
    shuffle: false
    new_height: 324
    new_width: 324
    is_color: false
  }
}
layer {
  name: "labelthreshold"
  type: "Threshold"
  bottom: "label"
  top: "label"
  threshold_param {
    threshold: 0.5
  }
}
layer {
  name: "silence"
  type: "Silence"
  bottom: "fakelabel"
  bottom: "fakelabel2"
}
layer {
  name: "genslic"
  type: "GenSlicinfo"
  bottom: "data"
  top: "slic"
  top: "deadmap"
  gen_slicinfo_param {
    image_size: 324
    slic_size: 18
    coh_weight: 1.4
    cielab: true
    min_pixel_num: 100
  }
}
layer {
  name: "initial_low"
  type: "LowlevelDistance"
  bottom: "data"
  bottom: "slic"
  bottom: "deadmap"
  bottom: "label"
  top: "region_features"
  top: "region_labels"
  include {
    phase: TEST
  }
  lowlevel_distance_param {
    grid_size: 20
    train_region_per_image: 0
    spixel_size: 18
    feature_option: 3
  }
}
layer {
  name: "low_conv1"
  type: "Convolution"
  bottom: "region_features"
  top: "region_conv1"
  param {
    lr_mult: 1
    decay_mult: 1
  }
  param {
    lr_mult: 2
    decay_mult: 0
  }
  convolution_param {
    num_output: 100
    pad: 0
    kernel_size: 1
    weight_filler {
      type: "xavier"
    }
    bias_filler {
      type: "constant"
      value: 0.1
    }
  }
}
layer {
  name: "low_bn1"
  type: "BatchNorm"
  bottom: "region_conv1"
  top: "region_conv1"
  param {
    lr_mult: 0
  }
  param {
    lr_mult: 0
  }
  param {
    lr_mult: 0
  }
}
layer {
  name: "low_relu1"
  type: "ReLU"
  bottom: "region_conv1"
  top: "region_conv1"
}
layer {
  name: "low_conv2"
  type: "Convolution"
  bottom: "region_conv1"
  top: "region_conv2"
  param {
    lr_mult: 1
    decay_mult: 1
  }
  param {
    lr_mult: 2
    decay_mult: 0
  }
  convolution_param {
    num_output: 100
    pad: 0
    kernel_size: 1
    weight_filler {
      type: "xavier"
    }
    bias_filler {
      type: "constant"
      value: 0.1
    }
  }
}
layer {
  name: "low_bn2"
  type: "BatchNorm"
  bottom: "region_conv2"
  top: "region_conv2"
  param {
    lr_mult: 0
  }
  param {
    lr_mult: 0
  }
  param {
    lr_mult: 0
  }
}
layer {
  name: "low_relu2"
  type: "ReLU"
  bottom: "region_conv2"
  top: "region_conv2"
}
layer {
  name: "low_conv3"
  type: "Convolution"
  bottom: "region_conv2"
  top: "region_conv3"
  param {
    lr_mult: 1
    decay_mult: 1
  }
  param {
    lr_mult: 2
    decay_mult: 0
  }
  convolution_param {
    num_output: 3
    pad: 0
    kernel_size: 1
    weight_filler {
      type: "xavier"
    }
    bias_filler {
      type: "constant"
      value: 0.1
    }
  }
}
layer {
  name: "low_bn3"
  type: "BatchNorm"
  bottom: "region_conv3"
  top: "region_conv3"
  param {
    lr_mult: 0
  }
  param {
    lr_mult: 0
  }
  param {
    lr_mult: 0
  }
}
layer {
  name: "low_relu3"
  type: "ReLU"
  bottom: "region_conv3"
  top: "region_conv3"
}
layer {
  name: "conv1/7x7_s2"
  type: "Convolution"
  bottom: "data"
  top: "conv1/7x7_s2"
  param {
    lr_mult: 1
    decay_mult: 1
  }
  param {
    lr_mult: 2
    decay_mult: 0
  }
  convolution_param {
    num_output: 64
    pad: 3
    kernel_size: 7
    stride: 2
    weight_filler {
      type: "xavier"
    }
    bias_filler {
      type: "constant"
      value: 0.2
    }
  }
}
layer {
  name: "conv1/relu_7x7"
  type: "ReLU"
  bottom: "conv1/7x7_s2"
  top: "conv1/7x7_s2"
}
layer {
  name: "pool1/3x3_s2"
  type: "Pooling"
  bottom: "conv1/7x7_s2"
  top: "pool1/3x3_s2"
  pooling_param {
    pool: MAX
    kernel_size: 3
    stride: 2
  }
}
layer {
  name: "pool1/norm1"
  type: "LRN"
  bottom: "pool1/3x3_s2"
  top: "pool1/norm1"
  lrn_param {
    local_size: 5
    alpha: 0.0001
    beta: 0.75
  }
}
layer {
  name: "conv2/3x3_reduce"
  type: "Convolution"
  bottom: "pool1/norm1"
  top: "conv2/3x3_reduce"
  param {
    lr_mult: 1
    decay_mult: 1
  }
  param {
    lr_mult: 2
    decay_mult: 0
  }
  convolution_param {
    num_output: 64
    kernel_size: 1
    weight_filler {
      type: "xavier"
    }
    bias_filler {
      type: "constant"
      value: 0.2
    }
  }
}
layer {
  name: "conv2/relu_3x3_reduce"
  type: "ReLU"
  bottom: "conv2/3x3_reduce"
  top: "conv2/3x3_reduce"
}
layer {
  name: "conv2/3x3"
  type: "Convolution"
  bottom: "conv2/3x3_reduce"
  top: "conv2/3x3"
  param {
    lr_mult: 1
    decay_mult: 1
  }
  param {
    lr_mult: 2
    decay_mult: 0
  }
  convolution_param {
    num_output: 192
    pad: 1
    kernel_size: 3
    weight_filler {
      type: "xavier"
    }
    bias_filler {
      type: "constant"
      value: 0.2
    }
  }
}
layer {
  name: "conv2/relu_3x3"
  type: "ReLU"
  bottom: "conv2/3x3"
  top: "conv2/3x3"
}
layer {
  name: "conv2/norm2"
  type: "LRN"
  bottom: "conv2/3x3"
  top: "conv2/norm2"
  lrn_param {
    local_size: 5
    alpha: 0.0001
    beta: 0.75
  }
}
layer {
  name: "pool2/3x3_s2"
  type: "Pooling"
  bottom: "conv2/norm2"
  top: "pool2/3x3_s2"
  pooling_param {
    pool: MAX
    kernel_size: 3
    stride: 2
  }
}
layer {
  name: "inception_3a/1x1"
  type: "Convolution"
  bottom: "pool2/3x3_s2"
  top: "inception_3a/1x1"
  param {
    lr_mult: 1
    decay_mult: 1
  }
  param {
    lr_mult: 2
    decay_mult: 0
  }
  convolution_param {
    num_output: 64
    kernel_size: 1
    weight_filler {
      type: "xavier"
    }
    bias_filler {
      type: "constant"
      value: 0.2
    }
  }
}
layer {
  name: "inception_3a/relu_1x1"
  type: "ReLU"
  bottom: "inception_3a/1x1"
  top: "inception_3a/1x1"
}
layer {
  name: "inception_3a/3x3_reduce"
  type: "Convolution"
  bottom: "pool2/3x3_s2"
  top: "inception_3a/3x3_reduce"
  param {
    lr_mult: 1
    decay_mult: 1
  }
  param {
    lr_mult: 2
    decay_mult: 0
  }
  convolution_param {
    num_output: 96
    kernel_size: 1
    weight_filler {
      type: "xavier"
    }
    bias_filler {
      type: "constant"
      value: 0.2
    }
  }
}
layer {
  name: "inception_3a/relu_3x3_reduce"
  type: "ReLU"
  bottom: "inception_3a/3x3_reduce"
  top: "inception_3a/3x3_reduce"
}
layer {
  name: "inception_3a/3x3"
  type: "Convolution"
  bottom: "inception_3a/3x3_reduce"
  top: "inception_3a/3x3"
  param {
    lr_mult: 1
    decay_mult: 1
  }
  param {
    lr_mult: 2
    decay_mult: 0
  }
  convolution_param {
    num_output: 128
    pad: 1
    kernel_size: 3
    weight_filler {
      type: "xavier"
    }
    bias_filler {
      type: "constant"
      value: 0.2
    }
  }
}
layer {
  name: "inception_3a/relu_3x3"
  type: "ReLU"
  bottom: "inception_3a/3x3"
  top: "inception_3a/3x3"
}
layer {
  name: "inception_3a/5x5_reduce"
  type: "Convolution"
  bottom: "pool2/3x3_s2"
  top: "inception_3a/5x5_reduce"
  param {
    lr_mult: 1
    decay_mult: 1
  }
  param {
    lr_mult: 2
    decay_mult: 0
  }
  convolution_param {
    num_output: 16
    kernel_size: 1
    weight_filler {
      type: "xavier"
    }
    bias_filler {
      type: "constant"
      value: 0.2
    }
  }
}
layer {
  name: "inception_3a/relu_5x5_reduce"
  type: "ReLU"
  bottom: "inception_3a/5x5_reduce"
  top: "inception_3a/5x5_reduce"
}
layer {
  name: "inception_3a/5x5"
  type: "Convolution"
  bottom: "inception_3a/5x5_reduce"
  top: "inception_3a/5x5"
  param {
    lr_mult: 1
    decay_mult: 1
  }
  param {
    lr_mult: 2
    decay_mult: 0
  }
  convolution_param {
    num_output: 32
    pad: 2
    kernel_size: 5
    weight_filler {
      type: "xavier"
    }
    bias_filler {
      type: "constant"
      value: 0.2
    }
  }
}
layer {
  name: "inception_3a/relu_5x5"
  type: "ReLU"
  bottom: "inception_3a/5x5"
  top: "inception_3a/5x5"
}
layer {
  name: "inception_3a/pool"
  type: "Pooling"
  bottom: "pool2/3x3_s2"
  top: "inception_3a/pool"
  pooling_param {
    pool: MAX
    kernel_size: 3
    stride: 1
    pad: 1
  }
}
layer {
  name: "inception_3a/pool_proj"
  type: "Convolution"
  bottom: "inception_3a/pool"
  top: "inception_3a/pool_proj"
  param {
    lr_mult: 1
    decay_mult: 1
  }
  param {
    lr_mult: 2
    decay_mult: 0
  }
  convolution_param {
    num_output: 32
    kernel_size: 1
    weight_filler {
      type: "xavier"
    }
    bias_filler {
      type: "constant"
      value: 0.2
    }
  }
}
layer {
  name: "inception_3a/relu_pool_proj"
  type: "ReLU"
  bottom: "inception_3a/pool_proj"
  top: "inception_3a/pool_proj"
}
layer {
  name: "inception_3a/output"
  type: "Concat"
  bottom: "inception_3a/1x1"
  bottom: "inception_3a/3x3"
  bottom: "inception_3a/5x5"
  bottom: "inception_3a/pool_proj"
  top: "inception_3a/output"
}
layer {
  name: "inception_3b/1x1"
  type: "Convolution"
  bottom: "inception_3a/output"
  top: "inception_3b/1x1"
  param {
    lr_mult: 1
    decay_mult: 1
  }
  param {
    lr_mult: 2
    decay_mult: 0
  }
  convolution_param {
    num_output: 128
    kernel_size: 1
    weight_filler {
      type: "xavier"
    }
    bias_filler {
      type: "constant"
      value: 0.2
    }
  }
}
layer {
  name: "inception_3b/relu_1x1"
  type: "ReLU"
  bottom: "inception_3b/1x1"
  top: "inception_3b/1x1"
}
layer {
  name: "inception_3b/3x3_reduce"
  type: "Convolution"
  bottom: "inception_3a/output"
  top: "inception_3b/3x3_reduce"
  param {
    lr_mult: 1
    decay_mult: 1
  }
  param {
    lr_mult: 2
    decay_mult: 0
  }
  convolution_param {
    num_output: 128
    kernel_size: 1
    weight_filler {
      type: "xavier"
    }
    bias_filler {
      type: "constant"
      value: 0.2
    }
  }
}
layer {
  name: "inception_3b/relu_3x3_reduce"
  type: "ReLU"
  bottom: "inception_3b/3x3_reduce"
  top: "inception_3b/3x3_reduce"
}
layer {
  name: "inception_3b/3x3"
  type: "Convolution"
  bottom: "inception_3b/3x3_reduce"
  top: "inception_3b/3x3"
  param {
    lr_mult: 1
    decay_mult: 1
  }
  param {
    lr_mult: 2
    decay_mult: 0
  }
  convolution_param {
    num_output: 192
    pad: 1
    kernel_size: 3
    weight_filler {
      type: "xavier"
    }
    bias_filler {
      type: "constant"
      value: 0.2
    }
  }
}
layer {
  name: "inception_3b/relu_3x3"
  type: "ReLU"
  bottom: "inception_3b/3x3"
  top: "inception_3b/3x3"
}
layer {
  name: "inception_3b/5x5_reduce"
  type: "Convolution"
  bottom: "inception_3a/output"
  top: "inception_3b/5x5_reduce"
  param {
    lr_mult: 1
    decay_mult: 1
  }
  param {
    lr_mult: 2
    decay_mult: 0
  }
  convolution_param {
    num_output: 32
    kernel_size: 1
    weight_filler {
      type: "xavier"
    }
    bias_filler {
      type: "constant"
      value: 0.2
    }
  }
}
layer {
  name: "inception_3b/relu_5x5_reduce"
  type: "ReLU"
  bottom: "inception_3b/5x5_reduce"
  top: "inception_3b/5x5_reduce"
}
layer {
  name: "inception_3b/5x5"
  type: "Convolution"
  bottom: "inception_3b/5x5_reduce"
  top: "inception_3b/5x5"
  param {
    lr_mult: 1
    decay_mult: 1
  }
  param {
    lr_mult: 2
    decay_mult: 0
  }
  convolution_param {
    num_output: 96
    pad: 2
    kernel_size: 5
    weight_filler {
      type: "xavier"
    }
    bias_filler {
      type: "constant"
      value: 0.2
    }
  }
}
layer {
  name: "inception_3b/relu_5x5"
  type: "ReLU"
  bottom: "inception_3b/5x5"
  top: "inception_3b/5x5"
}
layer {
  name: "inception_3b/pool"
  type: "Pooling"
  bottom: "inception_3a/output"
  top: "inception_3b/pool"
  pooling_param {
    pool: MAX
    kernel_size: 3
    stride: 1
    pad: 1
  }
}
layer {
  name: "inception_3b/pool_proj"
  type: "Convolution"
  bottom: "inception_3b/pool"
  top: "inception_3b/pool_proj"
  param {
    lr_mult: 1
    decay_mult: 1
  }
  param {
    lr_mult: 2
    decay_mult: 0
  }
  convolution_param {
    num_output: 64
    kernel_size: 1
    weight_filler {
      type: "xavier"
    }
    bias_filler {
      type: "constant"
      value: 0.2
    }
  }
}
layer {
  name: "inception_3b/relu_pool_proj"
  type: "ReLU"
  bottom: "inception_3b/pool_proj"
  top: "inception_3b/pool_proj"
}
layer {
  name: "inception_3b/output"
  type: "Concat"
  bottom: "inception_3b/1x1"
  bottom: "inception_3b/3x3"
  bottom: "inception_3b/5x5"
  bottom: "inception_3b/pool_proj"
  top: "inception_3b/output"
}
layer {
  name: "pool3/3x3_s2"
  type: "Pooling"
  bottom: "inception_3b/output"
  top: "pool3/3x3_s2"
  pooling_param {
    pool: MAX
    kernel_size: 3
    stride: 2
  }
}
layer {
  name: "inception_4a/1x1"
  type: "Convolution"
  bottom: "pool3/3x3_s2"
  top: "inception_4a/1x1"
  param {
    lr_mult: 1
    decay_mult: 1
  }
  param {
    lr_mult: 2
    decay_mult: 0
  }
  convolution_param {
    num_output: 192
    kernel_size: 1
    weight_filler {
      type: "xavier"
    }
    bias_filler {
      type: "constant"
      value: 0.2
    }
  }
}
layer {
  name: "inception_4a/relu_1x1"
  type: "ReLU"
  bottom: "inception_4a/1x1"
  top: "inception_4a/1x1"
}
layer {
  name: "inception_4a/3x3_reduce"
  type: "Convolution"
  bottom: "pool3/3x3_s2"
  top: "inception_4a/3x3_reduce"
  param {
    lr_mult: 1
    decay_mult: 1
  }
  param {
    lr_mult: 2
    decay_mult: 0
  }
  convolution_param {
    num_output: 96
    kernel_size: 1
    weight_filler {
      type: "xavier"
    }
    bias_filler {
      type: "constant"
      value: 0.2
    }
  }
}
layer {
  name: "inception_4a/relu_3x3_reduce"
  type: "ReLU"
  bottom: "inception_4a/3x3_reduce"
  top: "inception_4a/3x3_reduce"
}
layer {
  name: "inception_4a/3x3"
  type: "Convolution"
  bottom: "inception_4a/3x3_reduce"
  top: "inception_4a/3x3"
  param {
    lr_mult: 1
    decay_mult: 1
  }
  param {
    lr_mult: 2
    decay_mult: 0
  }
  convolution_param {
    num_output: 208
    pad: 1
    kernel_size: 3
    weight_filler {
      type: "xavier"
    }
    bias_filler {
      type: "constant"
      value: 0.2
    }
  }
}
layer {
  name: "inception_4a/relu_3x3"
  type: "ReLU"
  bottom: "inception_4a/3x3"
  top: "inception_4a/3x3"
}
layer {
  name: "inception_4a/5x5_reduce"
  type: "Convolution"
  bottom: "pool3/3x3_s2"
  top: "inception_4a/5x5_reduce"
  param {
    lr_mult: 1
    decay_mult: 1
  }
  param {
    lr_mult: 2
    decay_mult: 0
  }
  convolution_param {
    num_output: 16
    kernel_size: 1
    weight_filler {
      type: "xavier"
    }
    bias_filler {
      type: "constant"
      value: 0.2
    }
  }
}
layer {
  name: "inception_4a/relu_5x5_reduce"
  type: "ReLU"
  bottom: "inception_4a/5x5_reduce"
  top: "inception_4a/5x5_reduce"
}
layer {
  name: "inception_4a/5x5"
  type: "Convolution"
  bottom: "inception_4a/5x5_reduce"
  top: "inception_4a/5x5"
  param {
    lr_mult: 1
    decay_mult: 1
  }
  param {
    lr_mult: 2
    decay_mult: 0
  }
  convolution_param {
    num_output: 48
    pad: 2
    kernel_size: 5
    weight_filler {
      type: "xavier"
    }
    bias_filler {
      type: "constant"
      value: 0.2
    }
  }
}
layer {
  name: "inception_4a/relu_5x5"
  type: "ReLU"
  bottom: "inception_4a/5x5"
  top: "inception_4a/5x5"
}
layer {
  name: "inception_4a/pool"
  type: "Pooling"
  bottom: "pool3/3x3_s2"
  top: "inception_4a/pool"
  pooling_param {
    pool: MAX
    kernel_size: 3
    stride: 1
    pad: 1
  }
}
layer {
  name: "inception_4a/pool_proj"
  type: "Convolution"
  bottom: "inception_4a/pool"
  top: "inception_4a/pool_proj"
  param {
    lr_mult: 1
    decay_mult: 1
  }
  param {
    lr_mult: 2
    decay_mult: 0
  }
  convolution_param {
    num_output: 64
    kernel_size: 1
    weight_filler {
      type: "xavier"
    }
    bias_filler {
      type: "constant"
      value: 0.2
    }
  }
}
layer {
  name: "inception_4a/relu_pool_proj"
  type: "ReLU"
  bottom: "inception_4a/pool_proj"
  top: "inception_4a/pool_proj"
}
layer {
  name: "inception_4a/output"
  type: "Concat"
  bottom: "inception_4a/1x1"
  bottom: "inception_4a/3x3"
  bottom: "inception_4a/5x5"
  bottom: "inception_4a/pool_proj"
  top: "inception_4a/output"
}
layer {
  name: "inception_4b/1x1"
  type: "Convolution"
  bottom: "inception_4a/output"
  top: "inception_4b/1x1"
  param {
    lr_mult: 1
    decay_mult: 1
  }
  param {
    lr_mult: 2
    decay_mult: 0
  }
  convolution_param {
    num_output: 160
    kernel_size: 1
    weight_filler {
      type: "xavier"
    }
    bias_filler {
      type: "constant"
      value: 0.2
    }
  }
}
layer {
  name: "inception_4b/relu_1x1"
  type: "ReLU"
  bottom: "inception_4b/1x1"
  top: "inception_4b/1x1"
}
layer {
  name: "inception_4b/3x3_reduce"
  type: "Convolution"
  bottom: "inception_4a/output"
  top: "inception_4b/3x3_reduce"
  param {
    lr_mult: 1
    decay_mult: 1
  }
  param {
    lr_mult: 2
    decay_mult: 0
  }
  convolution_param {
    num_output: 112
    kernel_size: 1
    weight_filler {
      type: "xavier"
    }
    bias_filler {
      type: "constant"
      value: 0.2
    }
  }
}
layer {
  name: "inception_4b/relu_3x3_reduce"
  type: "ReLU"
  bottom: "inception_4b/3x3_reduce"
  top: "inception_4b/3x3_reduce"
}
layer {
  name: "inception_4b/3x3"
  type: "Convolution"
  bottom: "inception_4b/3x3_reduce"
  top: "inception_4b/3x3"
  param {
    lr_mult: 1
    decay_mult: 1
  }
  param {
    lr_mult: 2
    decay_mult: 0
  }
  convolution_param {
    num_output: 224
    pad: 1
    kernel_size: 3
    weight_filler {
      type: "xavier"
    }
    bias_filler {
      type: "constant"
      value: 0.2
    }
  }
}
layer {
  name: "inception_4b/relu_3x3"
  type: "ReLU"
  bottom: "inception_4b/3x3"
  top: "inception_4b/3x3"
}
layer {
  name: "inception_4b/5x5_reduce"
  type: "Convolution"
  bottom: "inception_4a/output"
  top: "inception_4b/5x5_reduce"
  param {
    lr_mult: 1
    decay_mult: 1
  }
  param {
    lr_mult: 2
    decay_mult: 0
  }
  convolution_param {
    num_output: 24
    kernel_size: 1
    weight_filler {
      type: "xavier"
    }
    bias_filler {
      type: "constant"
      value: 0.2
    }
  }
}
layer {
  name: "inception_4b/relu_5x5_reduce"
  type: "ReLU"
  bottom: "inception_4b/5x5_reduce"
  top: "inception_4b/5x5_reduce"
}
layer {
  name: "inception_4b/5x5"
  type: "Convolution"
  bottom: "inception_4b/5x5_reduce"
  top: "inception_4b/5x5"
  param {
    lr_mult: 1
    decay_mult: 1
  }
  param {
    lr_mult: 2
    decay_mult: 0
  }
  convolution_param {
    num_output: 64
    pad: 2
    kernel_size: 5
    weight_filler {
      type: "xavier"
    }
    bias_filler {
      type: "constant"
      value: 0.2
    }
  }
}
layer {
  name: "inception_4b/relu_5x5"
  type: "ReLU"
  bottom: "inception_4b/5x5"
  top: "inception_4b/5x5"
}
layer {
  name: "inception_4b/pool"
  type: "Pooling"
  bottom: "inception_4a/output"
  top: "inception_4b/pool"
  pooling_param {
    pool: MAX
    kernel_size: 3
    stride: 1
    pad: 1
  }
}
layer {
  name: "inception_4b/pool_proj"
  type: "Convolution"
  bottom: "inception_4b/pool"
  top: "inception_4b/pool_proj"
  param {
    lr_mult: 1
    decay_mult: 1
  }
  param {
    lr_mult: 2
    decay_mult: 0
  }
  convolution_param {
    num_output: 64
    kernel_size: 1
    weight_filler {
      type: "xavier"
    }
    bias_filler {
      type: "constant"
      value: 0.2
    }
  }
}
layer {
  name: "inception_4b/relu_pool_proj"
  type: "ReLU"
  bottom: "inception_4b/pool_proj"
  top: "inception_4b/pool_proj"
}
layer {
  name: "inception_4b/output"
  type: "Concat"
  bottom: "inception_4b/1x1"
  bottom: "inception_4b/3x3"
  bottom: "inception_4b/5x5"
  bottom: "inception_4b/pool_proj"
  top: "inception_4b/output"
}
layer {
  name: "inception_4c/1x1"
  type: "Convolution"
  bottom: "inception_4b/output"
  top: "inception_4c/1x1"
  param {
    lr_mult: 1
    decay_mult: 1
  }
  param {
    lr_mult: 2
    decay_mult: 0
  }
  convolution_param {
    num_output: 128
    kernel_size: 1
    weight_filler {
      type: "xavier"
    }
    bias_filler {
      type: "constant"
      value: 0.2
    }
  }
}
layer {
  name: "inception_4c/relu_1x1"
  type: "ReLU"
  bottom: "inception_4c/1x1"
  top: "inception_4c/1x1"
}
layer {
  name: "inception_4c/3x3_reduce"
  type: "Convolution"
  bottom: "inception_4b/output"
  top: "inception_4c/3x3_reduce"
  param {
    lr_mult: 1
    decay_mult: 1
  }
  param {
    lr_mult: 2
    decay_mult: 0
  }
  convolution_param {
    num_output: 128
    kernel_size: 1
    weight_filler {
      type: "xavier"
    }
    bias_filler {
      type: "constant"
      value: 0.2
    }
  }
}
layer {
  name: "inception_4c/relu_3x3_reduce"
  type: "ReLU"
  bottom: "inception_4c/3x3_reduce"
  top: "inception_4c/3x3_reduce"
}
layer {
  name: "inception_4c/3x3"
  type: "Convolution"
  bottom: "inception_4c/3x3_reduce"
  top: "inception_4c/3x3"
  param {
    lr_mult: 1
    decay_mult: 1
  }
  param {
    lr_mult: 2
    decay_mult: 0
  }
  convolution_param {
    num_output: 256
    pad: 1
    kernel_size: 3
    weight_filler {
      type: "xavier"
    }
    bias_filler {
      type: "constant"
      value: 0.2
    }
  }
}
layer {
  name: "inception_4c/relu_3x3"
  type: "ReLU"
  bottom: "inception_4c/3x3"
  top: "inception_4c/3x3"
}
layer {
  name: "inception_4c/5x5_reduce"
  type: "Convolution"
  bottom: "inception_4b/output"
  top: "inception_4c/5x5_reduce"
  param {
    lr_mult: 1
    decay_mult: 1
  }
  param {
    lr_mult: 2
    decay_mult: 0
  }
  convolution_param {
    num_output: 24
    kernel_size: 1
    weight_filler {
      type: "xavier"
    }
    bias_filler {
      type: "constant"
      value: 0.2
    }
  }
}
layer {
  name: "inception_4c/relu_5x5_reduce"
  type: "ReLU"
  bottom: "inception_4c/5x5_reduce"
  top: "inception_4c/5x5_reduce"
}
layer {
  name: "inception_4c/5x5"
  type: "Convolution"
  bottom: "inception_4c/5x5_reduce"
  top: "inception_4c/5x5"
  param {
    lr_mult: 1
    decay_mult: 1
  }
  param {
    lr_mult: 2
    decay_mult: 0
  }
  convolution_param {
    num_output: 64
    pad: 2
    kernel_size: 5
    weight_filler {
      type: "xavier"
    }
    bias_filler {
      type: "constant"
      value: 0.2
    }
  }
}
layer {
  name: "inception_4c/relu_5x5"
  type: "ReLU"
  bottom: "inception_4c/5x5"
  top: "inception_4c/5x5"
}
layer {
  name: "inception_4c/pool"
  type: "Pooling"
  bottom: "inception_4b/output"
  top: "inception_4c/pool"
  pooling_param {
    pool: MAX
    kernel_size: 3
    stride: 1
    pad: 1
  }
}
layer {
  name: "inception_4c/pool_proj"
  type: "Convolution"
  bottom: "inception_4c/pool"
  top: "inception_4c/pool_proj"
  param {
    lr_mult: 1
    decay_mult: 1
  }
  param {
    lr_mult: 2
    decay_mult: 0
  }
  convolution_param {
    num_output: 64
    kernel_size: 1
    weight_filler {
      type: "xavier"
    }
    bias_filler {
      type: "constant"
      value: 0.2
    }
  }
}
layer {
  name: "inception_4c/relu_pool_proj"
  type: "ReLU"
  bottom: "inception_4c/pool_proj"
  top: "inception_4c/pool_proj"
}
layer {
  name: "inception_4c/output"
  type: "Concat"
  bottom: "inception_4c/1x1"
  bottom: "inception_4c/3x3"
  bottom: "inception_4c/5x5"
  bottom: "inception_4c/pool_proj"
  top: "inception_4c/output"
}
layer {
  name: "inception_4d/1x1"
  type: "Convolution"
  bottom: "inception_4c/output"
  top: "inception_4d/1x1"
  param {
    lr_mult: 1
    decay_mult: 1
  }
  param {
    lr_mult: 2
    decay_mult: 0
  }
  convolution_param {
    num_output: 112
    kernel_size: 1
    weight_filler {
      type: "xavier"
    }
    bias_filler {
      type: "constant"
      value: 0.2
    }
  }
}
layer {
  name: "inception_4d/relu_1x1"
  type: "ReLU"
  bottom: "inception_4d/1x1"
  top: "inception_4d/1x1"
}
layer {
  name: "inception_4d/3x3_reduce"
  type: "Convolution"
  bottom: "inception_4c/output"
  top: "inception_4d/3x3_reduce"
  param {
    lr_mult: 1
    decay_mult: 1
  }
  param {
    lr_mult: 2
    decay_mult: 0
  }
  convolution_param {
    num_output: 144
    kernel_size: 1
    weight_filler {
      type: "xavier"
    }
    bias_filler {
      type: "constant"
      value: 0.2
    }
  }
}
layer {
  name: "inception_4d/relu_3x3_reduce"
  type: "ReLU"
  bottom: "inception_4d/3x3_reduce"
  top: "inception_4d/3x3_reduce"
}
layer {
  name: "inception_4d/3x3"
  type: "Convolution"
  bottom: "inception_4d/3x3_reduce"
  top: "inception_4d/3x3"
  param {
    lr_mult: 1
    decay_mult: 1
  }
  param {
    lr_mult: 2
    decay_mult: 0
  }
  convolution_param {
    num_output: 288
    pad: 1
    kernel_size: 3
    weight_filler {
      type: "xavier"
    }
    bias_filler {
      type: "constant"
      value: 0.2
    }
  }
}
layer {
  name: "inception_4d/relu_3x3"
  type: "ReLU"
  bottom: "inception_4d/3x3"
  top: "inception_4d/3x3"
}
layer {
  name: "inception_4d/5x5_reduce"
  type: "Convolution"
  bottom: "inception_4c/output"
  top: "inception_4d/5x5_reduce"
  param {
    lr_mult: 1
    decay_mult: 1
  }
  param {
    lr_mult: 2
    decay_mult: 0
  }
  convolution_param {
    num_output: 32
    kernel_size: 1
    weight_filler {
      type: "xavier"
    }
    bias_filler {
      type: "constant"
      value: 0.2
    }
  }
}
layer {
  name: "inception_4d/relu_5x5_reduce"
  type: "ReLU"
  bottom: "inception_4d/5x5_reduce"
  top: "inception_4d/5x5_reduce"
}
layer {
  name: "inception_4d/5x5"
  type: "Convolution"
  bottom: "inception_4d/5x5_reduce"
  top: "inception_4d/5x5"
  param {
    lr_mult: 1
    decay_mult: 1
  }
  param {
    lr_mult: 2
    decay_mult: 0
  }
  convolution_param {
    num_output: 64
    pad: 2
    kernel_size: 5
    weight_filler {
      type: "xavier"
    }
    bias_filler {
      type: "constant"
      value: 0.2
    }
  }
}
layer {
  name: "inception_4d/relu_5x5"
  type: "ReLU"
  bottom: "inception_4d/5x5"
  top: "inception_4d/5x5"
}
layer {
  name: "inception_4d/pool"
  type: "Pooling"
  bottom: "inception_4c/output"
  top: "inception_4d/pool"
  pooling_param {
    pool: MAX
    kernel_size: 3
    stride: 1
    pad: 1
  }
}
layer {
  name: "inception_4d/pool_proj"
  type: "Convolution"
  bottom: "inception_4d/pool"
  top: "inception_4d/pool_proj"
  param {
    lr_mult: 1
    decay_mult: 1
  }
  param {
    lr_mult: 2
    decay_mult: 0
  }
  convolution_param {
    num_output: 64
    kernel_size: 1
    weight_filler {
      type: "xavier"
    }
    bias_filler {
      type: "constant"
      value: 0.2
    }
  }
}
layer {
  name: "inception_4d/relu_pool_proj"
  type: "ReLU"
  bottom: "inception_4d/pool_proj"
  top: "inception_4d/pool_proj"
}
layer {
  name: "inception_4d/output"
  type: "Concat"
  bottom: "inception_4d/1x1"
  bottom: "inception_4d/3x3"
  bottom: "inception_4d/5x5"
  bottom: "inception_4d/pool_proj"
  top: "inception_4d/output"
}
layer {
  name: "inception_4e/1x1"
  type: "Convolution"
  bottom: "inception_4d/output"
  top: "inception_4e/1x1"
  param {
    lr_mult: 1
    decay_mult: 1
  }
  param {
    lr_mult: 2
    decay_mult: 0
  }
  convolution_param {
    num_output: 256
    kernel_size: 1
    weight_filler {
      type: "xavier"
    }
    bias_filler {
      type: "constant"
      value: 0.2
    }
  }
}
layer {
  name: "inception_4e/relu_1x1"
  type: "ReLU"
  bottom: "inception_4e/1x1"
  top: "inception_4e/1x1"
}
layer {
  name: "inception_4e/3x3_reduce"
  type: "Convolution"
  bottom: "inception_4d/output"
  top: "inception_4e/3x3_reduce"
  param {
    lr_mult: 1
    decay_mult: 1
  }
  param {
    lr_mult: 2
    decay_mult: 0
  }
  convolution_param {
    num_output: 160
    kernel_size: 1
    weight_filler {
      type: "xavier"
    }
    bias_filler {
      type: "constant"
      value: 0.2
    }
  }
}
…
I0820 09:41:43.885740 10679 net.cpp:142] Setting up inception_4a/5x5
I0820 09:41:43.885781 10679 net.cpp:149] Top shape: 1 48 20 20 (19200)
I0820 09:41:43.885797 10679 net.cpp:157] Memory required for data: 411045096
I0820 09:41:43.885825 10679 layer_factory.hpp:77] Creating layer inception_4a/relu_5x5
I0820 09:41:43.885840 10679 net.cpp:92] Creating Layer inception_4a/relu_5x5
I0820 09:41:43.885845 10679 net.cpp:426] inception_4a/relu_5x5 <- inception_4a/5x5
I0820 09:41:43.885854 10679 net.cpp:387] inception_4a/relu_5x5 -> inception_4a/5x5 (in-place)
I0820 09:41:43.886019 10679 net.cpp:142] Setting up inception_4a/relu_5x5
I0820 09:41:43.886037 10679 net.cpp:149] Top shape: 1 48 20 20 (19200)
I0820 09:41:43.886042 10679 net.cpp:157] Memory required for data: 411121896
I0820 09:41:43.886047 10679 layer_factory.hpp:77] Creating layer inception_4a/pool
I0820 09:41:43.886064 10679 net.cpp:92] Creating Layer inception_4a/pool
I0820 09:41:43.886070 10679 net.cpp:426] inception_4a/pool <- pool3/3x3_s2_pool3/3x3_s2_0_split_3
I0820 09:41:43.886075 10679 net.cpp:400] inception_4a/pool -> inception_4a/pool
I0820 09:41:43.886139 10679 net.cpp:142] Setting up inception_4a/pool
I0820 09:41:43.886155 10679 net.cpp:149] Top shape: 1 480 20 20 (192000)
I0820 09:41:43.886159 10679 net.cpp:157] Memory required for data: 411889896
I0820 09:41:43.886163 10679 layer_factory.hpp:77] Creating layer inception_4a/pool_proj
I0820 09:41:43.886181 10679 net.cpp:92] Creating Layer inception_4a/pool_proj
I0820 09:41:43.886186 10679 net.cpp:426] inception_4a/pool_proj <- inception_4a/pool
I0820 09:41:43.886203 10679 net.cpp:400] inception_4a/pool_proj -> inception_4a/pool_proj
I0820 09:41:43.887444 10679 net.cpp:142] Setting up inception_4a/pool_proj
I0820 09:41:43.887475 10679 net.cpp:149] Top shape: 1 64 20 20 (25600)
I0820 09:41:43.887480 10679 net.cpp:157] Memory required for data: 411992296
I0820 09:41:43.887486 10679 layer_factory.hpp:77] Creating layer inception_4a/relu_pool_proj
I0820 09:41:43.887501 10679 net.cpp:92] Creating Layer inception_4a/relu_pool_proj
I0820 09:41:43.887514 10679 net.cpp:426] inception_4a/relu_pool_proj <- inception_4a/pool_proj
I0820 09:41:43.887531 10679 net.cpp:387] inception_4a/relu_pool_proj -> inception_4a/pool_proj (in-place)
I0820 09:41:43.887711 10679 net.cpp:142] Setting up inception_4a/relu_pool_proj
I0820 09:41:43.887728 10679 net.cpp:149] Top shape: 1 64 20 20 (25600)
I0820 09:41:43.887733 10679 net.cpp:157] Memory required for data: 412094696
I0820 09:41:43.887738 10679 layer_factory.hpp:77] Creating layer inception_4a/output
I0820 09:41:43.887747 10679 net.cpp:92] Creating Layer inception_4a/output
I0820 09:41:43.887759 10679 net.cpp:426] inception_4a/output <- inception_4a/1x1
I0820 09:41:43.887765 10679 net.cpp:426] inception_4a/output <- inception_4a/3x3
I0820 09:41:43.887770 10679 net.cpp:426] inception_4a/output <- inception_4a/5x5
I0820 09:41:43.887775 10679 net.cpp:426] inception_4a/output <- inception_4a/pool_proj
I0820 09:41:43.887781 10679 net.cpp:400] inception_4a/output -> inception_4a/output
I0820 09:41:43.887826 10679 net.cpp:142] Setting up inception_4a/output
I0820 09:41:43.887835 10679 net.cpp:149] Top shape: 1 512 20 20 (204800)
I0820 09:41:43.887840 10679 net.cpp:157] Memory required for data: 412913896
I0820 09:41:43.887845 10679 layer_factory.hpp:77] Creating layer inception_4a/output_inception_4a/output_0_split
I0820 09:41:43.887850 10679 net.cpp:92] Creating Layer inception_4a/output_inception_4a/output_0_split
I0820 09:41:43.887856 10679 net.cpp:426] inception_4a/output_inception_4a/output_0_split <- inception_4a/output
I0820 09:41:43.887871 10679 net.cpp:400] inception_4a/output_inception_4a/output_0_split -> inception_4a/output_inception_4a/output_0_split_0
I0820 09:41:43.887886 10679 net.cpp:400] inception_4a/output_inception_4a/output_0_split -> inception_4a/output_inception_4a/output_0_split_1
I0820 09:41:43.887892 10679 net.cpp:400] inception_4a/output_inception_4a/output_0_split -> inception_4a/output_inception_4a/output_0_split_2
I0820 09:41:43.887898 10679 net.cpp:400] inception_4a/output_inception_4a/output_0_split -> inception_4a/output_inception_4a/output_0_split_3
I0820 09:41:43.887996 10679 net.cpp:142] Setting up inception_4a/output_inception_4a/output_0_split
I0820 09:41:43.888020 10679 net.cpp:149] Top shape: 1 512 20 20 (204800)
I0820 09:41:43.888025 10679 net.cpp:149] Top shape: 1 512 20 20 (204800)
I0820 09:41:43.888030 10679 net.cpp:149] Top shape: 1 512 20 20 (204800)
I0820 09:41:43.888034 10679 net.cpp:149] Top shape: 1 512 20 20 (204800)
I0820 09:41:43.888038 10679 net.cpp:157] Memory required for data: 416190696
I0820 09:41:43.888043 10679 layer_factory.hpp:77] Creating layer inception_4b/1x1
I0820 09:41:43.888061 10679 net.cpp:92] Creating Layer inception_4b/1x1
I0820 09:41:43.888067 10679 net.cpp:426] inception_4b/1x1 <- inception_4a/output_inception_4a/output_0_split_0
I0820 09:41:43.888072 10679 net.cpp:400] inception_4b/1x1 -> inception_4b/1x1
I0820 09:41:43.889505 10679 net.cpp:142] Setting up inception_4b/1x1
I0820 09:41:43.889536 10679 net.cpp:149] Top shape: 1 160 20 20 (64000)
I0820 09:41:43.889541 10679 net.cpp:157] Memory required for data: 416446696
I0820 09:41:43.889549 10679 layer_factory.hpp:77] Creating layer inception_4b/relu_1x1
I0820 09:41:43.889562 10679 net.cpp:92] Creating Layer inception_4b/relu_1x1
I0820 09:41:43.889567 10679 net.cpp:426] inception_4b/relu_1x1 <- inception_4b/1x1
I0820 09:41:43.889582 10679 net.cpp:387] inception_4b/relu_1x1 -> inception_4b/1x1 (in-place)
I0820 09:41:43.889904 10679 net.cpp:142] Setting up inception_4b/relu_1x1
I0820 09:41:43.889931 10679 net.cpp:149] Top shape: 1 160 20 20 (64000)
I0820 09:41:43.889936 10679 net.cpp:157] Memory required for data: 416702696
I0820 09:41:43.889941 10679 layer_factory.hpp:77] Creating layer inception_4b/3x3_reduce
I0820 09:41:43.889960 10679 net.cpp:92] Creating Layer inception_4b/3x3_reduce
I0820 09:41:43.889964 10679 net.cpp:426] inception_4b/3x3_reduce <- inception_4a/output_inception_4a/output_0_split_1
I0820 09:41:43.889981 10679 net.cpp:400] inception_4b/3x3_reduce -> inception_4b/3x3_reduce
I0820 09:41:43.891367 10679 net.cpp:142] Setting up inception_4b/3x3_reduce
I0820 09:41:43.891398 10679 net.cpp:149] Top shape: 1 112 20 20 (44800)
I0820 09:41:43.891403 10679 net.cpp:157] Memory required for data: 416881896
I0820 09:41:43.891410 10679 layer_factory.hpp:77] Creating layer inception_4b/relu_3x3_reduce
I0820 09:41:43.891438 10679 net.cpp:92] Creating Layer inception_4b/relu_3x3_reduce
I0820 09:41:43.891443 10679 net.cpp:426] inception_4b/relu_3x3_reduce <- inception_4b/3x3_reduce
I0820 09:41:43.891449 10679 net.cpp:387] inception_4b/relu_3x3_reduce -> inception_4b/3x3_reduce (in-place)
I0820 09:41:43.891615 10679 net.cpp:142] Setting up inception_4b/relu_3x3_reduce
I0820 09:41:43.891633 10679 net.cpp:149] Top shape: 1 112 20 20 (44800)
I0820 09:41:43.891638 10679 net.cpp:157] Memory required for data: 417061096
I0820 09:41:43.891644 10679 layer_factory.hpp:77] Creating layer inception_4b/3x3
I0820 09:41:43.891661 10679 net.cpp:92] Creating Layer inception_4b/3x3
I0820 09:41:43.891667 10679 net.cpp:426] inception_4b/3x3 <- inception_4b/3x3_reduce
I0820 09:41:43.891674 10679 net.cpp:400] inception_4b/3x3 -> inception_4b/3x3
I0820 09:41:43.894362 10679 net.cpp:142] Setting up inception_4b/3x3
I0820 09:41:43.894393 10679 net.cpp:149] Top shape: 1 224 20 20 (89600)
I0820 09:41:43.894398 10679 net.cpp:157] Memory required for data: 417419496
I0820 09:41:43.894413 10679 layer_factory.hpp:77] Creating layer inception_4b/relu_3x3
I0820 09:41:43.894436 10679 net.cpp:92] Creating Layer inception_4b/relu_3x3
I0820 09:41:43.894443 10679 net.cpp:426] inception_4b/relu_3x3 <- inception_4b/3x3
I0820 09:41:43.894457 10679 net.cpp:387] inception_4b/relu_3x3 -> inception_4b/3x3 (in-place)
I0820 09:41:43.894647 10679 net.cpp:142] Setting up inception_4b/relu_3x3
I0820 09:41:43.894667 10679 net.cpp:149] Top shape: 1 224 20 20 (89600)
I0820 09:41:43.894672 10679 net.cpp:157] Memory required for data: 417777896
I0820 09:41:43.894677 10679 layer_factory.hpp:77] Creating layer inception_4b/5x5_reduce
I0820 09:41:43.894693 10679 net.cpp:92] Creating Layer inception_4b/5x5_reduce
I0820 09:41:43.894711 10679 net.cpp:426] inception_4b/5x5_reduce <- inception_4a/output_inception_4a/output_0_split_2
I0820 09:41:43.894740 10679 net.cpp:400] inception_4b/5x5_reduce -> inception_4b/5x5_reduce
I0820 09:41:43.895894 10679 net.cpp:142] Setting up inception_4b/5x5_reduce
I0820 09:41:43.895923 10679 net.cpp:149] Top shape: 1 24 20 20 (9600)
I0820 09:41:43.895928 10679 net.cpp:157] Memory required for data: 417816296
I0820 09:41:43.895953 10679 layer_factory.hpp:77] Creating layer inception_4b/relu_5x5_reduce
I0820 09:41:43.895969 10679 net.cpp:92] Creating Layer inception_4b/relu_5x5_reduce
I0820 09:41:43.895975 10679 net.cpp:426] inception_4b/relu_5x5_reduce <- inception_4b/5x5_reduce
I0820 09:41:43.895982 10679 net.cpp:387] inception_4b/relu_5x5_reduce -> inception_4b/5x5_reduce (in-place)
I0820 09:41:43.896289 10679 net.cpp:142] Setting up inception_4b/relu_5x5_reduce
I0820 09:41:43.896317 10679 net.cpp:149] Top shape: 1 24 20 20 (9600)
I0820 09:41:43.896322 10679 net.cpp:157] Memory required for data: 417854696
I0820 09:41:43.896327 10679 layer_factory.hpp:77] Creating layer inception_4b/5x5
I0820 09:41:43.896347 10679 net.cpp:92] Creating Layer inception_4b/5x5
I0820 09:41:43.896353 10679 net.cpp:426] inception_4b/5x5 <- inception_4b/5x5_reduce
I0820 09:41:43.896368 10679 net.cpp:400] inception_4b/5x5 -> inception_4b/5x5
I0820 09:41:43.897657 10679 net.cpp:142] Setting up inception_4b/5x5
I0820 09:41:43.897671 10679 net.cpp:149] Top shape: 1 64 20 20 (25600)
I0820 09:41:43.897676 10679 net.cpp:157] Memory required for data: 417957096
I0820 09:41:43.897683 10679 layer_factory.hpp:77] Creating layer inception_4b/relu_5x5
I0820 09:41:43.897701 10679 net.cpp:92] Creating Layer inception_4b/relu_5x5
I0820 09:41:43.897706 10679 net.cpp:426] inception_4b/relu_5x5 <- inception_4b/5x5
I0820 09:41:43.897713 10679 net.cpp:387] inception_4b/relu_5x5 -> inception_4b/5x5 (in-place)
I0820 09:41:43.897882 10679 net.cpp:142] Setting up inception_4b/relu_5x5
I0820 09:41:43.897902 10679 net.cpp:149] Top shape: 1 64 20 20 (25600)
I0820 09:41:43.897907 10679 net.cpp:157] Memory required for data: 418059496
I0820 09:41:43.897910 10679 layer_factory.hpp:77] Creating layer inception_4b/pool
I0820 09:41:43.897927 10679 net.cpp:92] Creating Layer inception_4b/pool
I0820 09:41:43.897933 10679 net.cpp:426] inception_4b/pool <- inception_4a/output_inception_4a/output_0_split_3
I0820 09:41:43.897939 10679 net.cpp:400] inception_4b/pool -> inception_4b/pool
I0820 09:41:43.898020 10679 net.cpp:142] Setting up inception_4b/pool
I0820 09:41:43.898036 10679 net.cpp:149] Top shape: 1 512 20 20 (204800)
I0820 09:41:43.898041 10679 net.cpp:157] Memory required for data: 418878696
I0820 09:41:43.898044 10679 layer_factory.hpp:77] Creating layer inception_4b/pool_proj
I0820 09:41:43.898062 10679 net.cpp:92] Creating Layer inception_4b/pool_proj
I0820 09:41:43.898067 10679 net.cpp:426] inception_4b/pool_proj <- inception_4b/pool
I0820 09:41:43.898083 10679 net.cpp:400] inception_4b/pool_proj -> inception_4b/pool_proj
I0820 09:41:43.899770 10679 net.cpp:142] Setting up inception_4b/pool_proj
I0820 09:41:43.899793 10679 net.cpp:149] Top shape: 1 64 20 20 (25600)
I0820 09:41:43.899798 10679 net.cpp:157] Memory required for data: 418981096
I0820 09:41:43.899813 10679 layer_factory.hpp:77] Creating layer inception_4b/relu_pool_proj
I0820 09:41:43.899830 10679 net.cpp:92] Creating Layer inception_4b/relu_pool_proj
I0820 09:41:43.899837 10679 net.cpp:426] inception_4b/relu_pool_proj <- inception_4b/pool_proj
I0820 09:41:43.899850 10679 net.cpp:387] inception_4b/relu_pool_proj -> inception_4b/pool_proj (in-place)
I0820 09:41:43.900032 10679 net.cpp:142] Setting up inception_4b/relu_pool_proj
I0820 09:41:43.900050 10679 net.cpp:149] Top shape: 1 64 20 20 (25600)
I0820 09:41:43.900055 10679 net.cpp:157] Memory required for data: 419083496
I0820 09:41:43.900060 10679 layer_factory.hpp:77] Creating layer inception_4b/output
I0820 09:41:43.900068 10679 net.cpp:92] Creating Layer inception_4b/output
I0820 09:41:43.900079 10679 net.cpp:426] inception_4b/output <- inception_4b/1x1
I0820 09:41:43.900099 10679 net.cpp:426] inception_4b/output <- inception_4b/3x3
I0820 09:41:43.900116 10679 net.cpp:426] inception_4b/output <- inception_4b/5x5
I0820 09:41:43.900121 10679 net.cpp:426] inception_4b/output <- inception_4b/pool_proj
I0820 09:41:43.900136 10679 net.cpp:400] inception_4b/output -> inception_4b/output
I0820 09:41:43.900183 10679 net.cpp:142] Setting up inception_4b/output
I0820 09:41:43.900199 10679 net.cpp:149] Top shape: 1 512 20 20 (204800)
I0820 09:41:43.900203 10679 net.cpp:157] Memory required for data: 419902696
I0820 09:41:43.900208 10679 layer_factory.hpp:77] Creating layer inception_4b/output_inception_4b/output_0_split
I0820 09:41:43.900233 10679 net.cpp:92] Creating Layer inception_4b/output_inception_4b/output_0_split
I0820 09:41:43.900238 10679 net.cpp:426] inception_4b/output_inception_4b/output_0_split <- inception_4b/output
I0820 09:41:43.900243 10679 net.cpp:400] inception_4b/output_inception_4b/output_0_split -> inception_4b/output_inception_4b/output_0_split_0
I0820 09:41:43.900260 10679 net.cpp:400] inception_4b/output_inception_4b/output_0_split -> inception_4b/output_inception_4b/output_0_split_1
I0820 09:41:43.900266 10679 net.cpp:400] inception_4b/output_inception_4b/output_0_split -> inception_4b/output_inception_4b/output_0_split_2
I0820 09:41:43.900272 10679 net.cpp:400] inception_4b/output_inception_4b/output_0_split -> inception_4b/output_inception_4b/output_0_split_3
I0820 09:41:43.900357 10679 net.cpp:142] Setting up inception_4b/output_inception_4b/output_0_split
I0820 09:41:43.900364 10679 net.cpp:149] Top shape: 1 512 20 20 (204800)
I0820 09:41:43.900377 10679 net.cpp:149] Top shape: 1 512 20 20 (204800)
I0820 09:41:43.900382 10679 net.cpp:149] Top shape: 1 512 20 20 (204800)
I0820 09:41:43.900387 10679 net.cpp:149] Top shape: 1 512 20 20 (204800)
I0820 09:41:43.900391 10679 net.cpp:157] Memory required for data: 423179496
I0820 09:41:43.900395 10679 layer_factory.hpp:77] Creating layer inception_4c/1x1
I0820 09:41:43.900418 10679 net.cpp:92] Creating Layer inception_4c/1x1
I0820 09:41:43.900423 10679 net.cpp:426] inception_4c/1x1 <- inception_4b/output_inception_4b/output_0_split_0
I0820 09:41:43.900429 10679 net.cpp:400] inception_4c/1x1 -> inception_4c/1x1
I0820 09:41:43.901813 10679 net.cpp:142] Setting up inception_4c/1x1
I0820 09:41:43.901844 10679 net.cpp:149] Top shape: 1 128 20 20 (51200)
I0820 09:41:43.901849 10679 net.cpp:157] Memory required for data: 423384296
I0820 09:41:43.901856 10679 layer_factory.hpp:77] Creating layer inception_4c/relu_1x1
I0820 09:41:43.901882 10679 net.cpp:92] Creating Layer inception_4c/relu_1x1
I0820 09:41:43.901887 10679 net.cpp:426] inception_4c/relu_1x1 <- inception_4c/1x1
I0820 09:41:43.901902 10679 net.cpp:387] inception_4c/relu_1x1 -> inception_4c/1x1 (in-place)
I0820 09:41:43.902226 10679 net.cpp:142] Setting up inception_4c/relu_1x1
I0820 09:41:43.902247 10679 net.cpp:149] Top shape: 1 128 20 20 (51200)
I0820 09:41:43.902259 10679 net.cpp:157] Memory required for data: 423589096
I0820 09:41:43.902264 10679 layer_factory.hpp:77] Creating layer inception_4c/3x3_reduce
I0820 09:41:43.902283 10679 net.cpp:92] Creating Layer inception_4c/3x3_reduce
I0820 09:41:43.902288 10679 net.cpp:426] inception_4c/3x3_reduce <- inception_4b/output_inception_4b/output_0_split_1
I0820 09:41:43.902295 10679 net.cpp:400] inception_4c/3x3_reduce -> inception_4c/3x3_reduce
I0820 09:41:43.903735 10679 net.cpp:142] Setting up inception_4c/3x3_reduce
I0820 09:41:43.903766 10679 net.cpp:149] Top shape: 1 128 20 20 (51200)
I0820 09:41:43.903771 10679 net.cpp:157] Memory required for data: 423793896
I0820 09:41:43.903786 10679 layer_factory.hpp:77] Creating layer inception_4c/relu_3x3_reduce
I0820 09:41:43.903794 10679 net.cpp:92] Creating Layer inception_4c/relu_3x3_reduce
I0820 09:41:43.903806 10679 net.cpp:426] inception_4c/relu_3x3_reduce <- inception_4c/3x3_reduce
I0820 09:41:43.903812 10679 net.cpp:387] inception_4c/relu_3x3_reduce -> inception_4c/3x3_reduce (in-place)
I0820 09:41:43.903980 10679 net.cpp:142] Setting up inception_4c/relu_3x3_reduce
I0820 09:41:43.904002 10679 net.cpp:149] Top shape: 1 128 20 20 (51200)
I0820 09:41:43.904021 10679 net.cpp:157] Memory required for data: 423998696
I0820 09:41:43.904026 10679 layer_factory.hpp:77] Creating layer inception_4c/3x3
I0820 09:41:43.904044 10679 net.cpp:92] Creating Layer inception_4c/3x3
I0820 09:41:43.904049 10679 net.cpp:426] inception_4c/3x3 <- inception_4c/3x3_reduce
I0820 09:41:43.904065 10679 net.cpp:400] inception_4c/3x3 -> inception_4c/3x3
I0820 09:41:43.907024 10679 net.cpp:142] Setting up inception_4c/3x3
I0820 09:41:43.907057 10679 net.cpp:149] Top shape: 1 256 20 20 (102400)
I0820 09:41:43.907061 10679 net.cpp:157] Memory required for data: 424408296
I0820 09:41:43.907068 10679 layer_factory.hpp:77] Creating layer inception_4c/relu_3x3
I0820 09:41:43.907083 10679 net.cpp:92] Creating Layer inception_4c/relu_3x3
I0820 09:41:43.907095 10679 net.cpp:426] inception_4c/relu_3x3 <- inception_4c/3x3
I0820 09:41:43.907110 10679 net.cpp:387] inception_4c/relu_3x3 -> inception_4c/3x3 (in-place)
I0820 09:41:43.907280 10679 net.cpp:142] Setting up inception_4c/relu_3x3
I0820 09:41:43.907299 10679 net.cpp:149] Top shape: 1 256 20 20 (102400)
I0820 09:41:43.907305 10679 net.cpp:157] Memory required for data: 424817896
I0820 09:41:43.907310 10679 layer_factory.hpp:77] Creating layer inception_4c/5x5_reduce
I0820 09:41:43.907326 10679 net.cpp:92] Creating Layer inception_4c/5x5_reduce
I0820 09:41:43.907332 10679 net.cpp:426] inception_4c/5x5_reduce <- inception_4b/output_inception_4b/output_0_split_2
I0820 09:41:43.907338 10679 net.cpp:400] inception_4c/5x5_reduce -> inception_4c/5x5_reduce
I0820 09:41:43.908951 10679 net.cpp:142] Setting up inception_4c/5x5_reduce
I0820 09:41:43.908982 10679 net.cpp:149] Top shape: 1 24 20 20 (9600)
I0820 09:41:43.908987 10679 net.cpp:157] Memory required for data: 424856296
I0820 09:41:43.908993 10679 layer_factory.hpp:77] Creating layer inception_4c/relu_5x5_reduce
I0820 09:41:43.909018 10679 net.cpp:92] Creating Layer inception_4c/relu_5x5_reduce
I0820 09:41:43.909024 10679 net.cpp:426] inception_4c/relu_5x5_reduce <- inception_4c/5x5_reduce
I0820 09:41:43.909029 10679 net.cpp:387] inception_4c/relu_5x5_reduce -> inception_4c/5x5_reduce (in-place)
I0820 09:41:43.909353 10679 net.cpp:142] Setting up inception_4c/relu_5x5_reduce
I0820 09:41:43.909382 10679 net.cpp:149] Top shape: 1 24 20 20 (9600)
I0820 09:41:43.909387 10679 net.cpp:157] Memory required for data: 424894696
I0820 09:41:43.909392 10679 layer_factory.hpp:77] Creating layer inception_4c/5x5
I0820 09:41:43.909411 10679 net.cpp:92] Creating Layer inception_4c/5x5
I0820 09:41:43.909416 10679 net.cpp:426] inception_4c/5x5 <- inception_4c/5x5_reduce
I0820 09:41:43.909432 10679 net.cpp:400] inception_4c/5x5 -> inception_4c/5x5
I0820 09:41:43.910876 10679 net.cpp:142] Setting up inception_4c/5x5
I0820 09:41:43.910907 10679 net.cpp:149] Top shape: 1 64 20 20 (25600)
I0820 09:41:43.910912 10679 net.cpp:157] Memory required for data: 424997096
I0820 09:41:43.910928 10679 layer_factory.hpp:77] Creating layer inception_4c/relu_5x5
I0820 09:41:43.910943 10679 net.cpp:92] Creating Layer inception_4c/relu_5x5
I0820 09:41:43.910949 10679 net.cpp:426] inception_4c/relu_5x5 <- inception_4c/5x5
I0820 09:41:43.910956 10679 net.cpp:387] inception_4c/relu_5x5 -> inception_4c/5x5 (in-place)
I0820 09:41:43.911149 10679 net.cpp:142] Setting up inception_4c/relu_5x5
I0820 09:41:43.911167 10679 net.cpp:149] Top shape: 1 64 20 20 (25600)
I0820 09:41:43.911172 10679 net.cpp:157] Memory required for data: 425099496
I0820 09:41:43.911177 10679 layer_factory.hpp:77] Creating layer inception_4c/pool
I0820 09:41:43.911185 10679 net.cpp:92] Creating Layer inception_4c/pool
I0820 09:41:43.911191 10679 net.cpp:426] inception_4c/pool <- inception_4b/output_inception_4b/output_0_split_3
I0820 09:41:43.911197 10679 net.cpp:400] inception_4c/pool -> inception_4c/pool
I0820 09:41:43.911265 10679 net.cpp:142] Setting up inception_4c/pool
I0820 09:41:43.911281 10679 net.cpp:149] Top shape: 1 512 20 20 (204800)
I0820 09:41:43.911300 10679 net.cpp:157] Memory required for data: 425918696
I0820 09:41:43.911317 10679 layer_factory.hpp:77] Creating layer inception_4c/pool_proj
I0820 09:41:43.911335 10679 net.cpp:92] Creating Layer inception_4c/pool_proj
I0820 09:41:43.911340 10679 net.cpp:426] inception_4c/pool_proj <- inception_4c/pool
I0820 09:41:43.911347 10679 net.cpp:400] inception_4c/pool_proj -> inception_4c/pool_proj
I0820 09:41:43.912643 10679 net.cpp:142] Setting up inception_4c/pool_proj
I0820 09:41:43.912674 10679 net.cpp:149] Top shape: 1 64 20 20 (25600)
I0820 09:41:43.912679 10679 net.cpp:157] Memory required for data: 426021096
I0820 09:41:43.912686 10679 layer_factory.hpp:77] Creating layer inception_4c/relu_pool_proj
I0820 09:41:43.912703 10679 net.cpp:92] Creating Layer inception_4c/relu_pool_proj
I0820 09:41:43.912708 10679 net.cpp:426] inception_4c/relu_pool_proj <- inception_4c/pool_proj
I0820 09:41:43.912714 10679 net.cpp:387] inception_4c/relu_pool_proj -> inception_4c/pool_proj (in-place)
I0820 09:41:43.912883 10679 net.cpp:142] Setting up inception_4c/relu_pool_proj
I0820 09:41:43.912900 10679 net.cpp:149] Top shape: 1 64 20 20 (25600)
I0820 09:41:43.912905 10679 net.cpp:157] Memory required for data: 426123496
I0820 09:41:43.912910 10679 layer_factory.hpp:77] Creating layer inception_4c/output
I0820 09:41:43.912926 10679 net.cpp:92] Creating Layer inception_4c/output
I0820 09:41:43.912931 10679 net.cpp:426] inception_4c/output <- inception_4c/1x1
I0820 09:41:43.912937 10679 net.cpp:426] inception_4c/output <- inception_4c/3x3
I0820 09:41:43.912942 10679 net.cpp:426] inception_4c/output <- inception_4c/5x5
I0820 09:41:43.912947 10679 net.cpp:426] inception_4c/output <- inception_4c/pool_proj
I0820 09:41:43.912961 10679 net.cpp:400] inception_4c/output -> inception_4c/output
I0820 09:41:43.913007 10679 net.cpp:142] Setting up inception_4c/output
I0820 09:41:43.913015 10679 net.cpp:149] Top shape: 1 512 20 20 (204800)
I0820 09:41:43.913028 10679 net.cpp:157] Memory required for data: 426942696
I0820 09:41:43.913031 10679 layer_factory.hpp:77] Creating layer inception_4c/output_inception_4c/output_0_split
I0820 09:41:43.913048 10679 net.cpp:92] Creating Layer inception_4c/output_inception_4c/output_0_split
I0820 09:41:43.913053 10679 net.cpp:426] inception_4c/output_inception_4c/output_0_split <- inception_4c/output
I0820 09:41:43.913058 10679 net.cpp:400] inception_4c/output_inception_4c/output_0_split -> inception_4c/output_inception_4c/output_0_split_0
I0820 09:41:43.913065 10679 net.cpp:400] inception_4c/output_inception_4c/output_0_split -> inception_4c/output_inception_4c/output_0_split_1
I0820 09:41:43.913081 10679 net.cpp:400] inception_4c/output_inception_4c/output_0_split -> inception_4c/output_inception_4c/output_0_split_2
I0820 09:41:43.913087 10679 net.cpp:400] inception_4c/output_inception_4c/output_0_split -> inception_4c/output_inception_4c/output_0_split_3
I0820 09:41:43.913173 10679 net.cpp:142] Setting up inception_4c/output_inception_4c/output_0_split
I0820 09:41:43.913182 10679 net.cpp:149] Top shape: 1 512 20 20 (204800)
I0820 09:41:43.913193 10679 net.cpp:149] Top shape: 1 512 20 20 (204800)
I0820 09:41:43.913198 10679 net.cpp:149] Top shape: 1 512 20 20 (204800)
I0820 09:41:43.913203 10679 net.cpp:149] Top shape: 1 512 20 20 (204800)
I0820 09:41:43.913208 10679 net.cpp:157] Memory required for data: 430219496
I0820 09:41:43.913213 10679 layer_factory.hpp:77] Creating layer inception_4d/1x1
I0820 09:41:43.913229 10679 net.cpp:92] Creating Layer inception_4d/1x1
I0820 09:41:43.913234 10679 net.cpp:426] inception_4d/1x1 <- inception_4c/output_inception_4c/output_0_split_0
I0820 09:41:43.913250 10679 net.cpp:400] inception_4d/1x1 -> inception_4d/1x1
I0820 09:41:43.915097 10679 net.cpp:142] Setting up inception_4d/1x1
I0820 09:41:43.915127 10679 net.cpp:149] Top shape: 1 112 20 20 (44800)
I0820 09:41:43.915133 10679 net.cpp:157] Memory required for data: 430398696
I0820 09:41:43.915148 10679 layer_factory.hpp:77] Creating layer inception_4d/relu_1x1
I0820 09:41:43.915154 10679 net.cpp:92] Creating Layer inception_4d/relu_1x1
I0820 09:41:43.915172 10679 net.cpp:426] inception_4d/relu_1x1 <- inception_4d/1x1
I0820 09:41:43.915200 10679 net.cpp:387] inception_4d/relu_1x1 -> inception_4d/1x1 (in-place)
I0820 09:41:43.915527 10679 net.cpp:142] Setting up inception_4d/relu_1x1
I0820 09:41:43.915541 10679 net.cpp:149] Top shape: 1 112 20 20 (44800)
I0820 09:41:43.915546 10679 net.cpp:157] Memory required for data: 430577896
I0820 09:41:43.915551 10679 layer_factory.hpp:77] Creating layer inception_4d/3x3_reduce
I0820 09:41:43.915570 10679 net.cpp:92] Creating Layer inception_4d/3x3_reduce
I0820 09:41:43.915576 10679 net.cpp:426] inception_4d/3x3_reduce <- inception_4c/output_inception_4c/output_0_split_1
I0820 09:41:43.915592 10679 net.cpp:400] inception_4d/3x3_reduce -> inception_4d/3x3_reduce
I0820 09:41:43.917085 10679 net.cpp:142] Setting up inception_4d/3x3_reduce
I0820 09:41:43.917116 10679 net.cpp:149] Top shape: 1 144 20 20 (57600)
I0820 09:41:43.917121 10679 net.cpp:157] Memory required for data: 430808296
I0820 09:41:43.917129 10679 layer_factory.hpp:77] Creating layer inception_4d/relu_3x3_reduce
I0820 09:41:43.917143 10679 net.cpp:92] Creating Layer inception_4d/relu_3x3_reduce
I0820 09:41:43.917156 10679 net.cpp:426] inception_4d/relu_3x3_reduce <- inception_4d/3x3_reduce
I0820 09:41:43.917163 10679 net.cpp:387] inception_4d/relu_3x3_reduce -> inception_4d/3x3_reduce (in-place)
I0820 09:41:43.917333 10679 net.cpp:142] Setting up inception_4d/relu_3x3_reduce
I0820 09:41:43.917353 10679 net.cpp:149] Top shape: 1 144 20 20 (57600)
I0820 09:41:43.917358 10679 net.cpp:157] Memory required for data: 431038696
I0820 09:41:43.917363 10679 layer_factory.hpp:77] Creating layer inception_4d/3x3
I0820 09:41:43.917381 10679 net.cpp:92] Creating Layer inception_4d/3x3
I0820 09:41:43.917387 10679 net.cpp:426] inception_4d/3x3 <- inception_4d/3x3_reduce
I0820 09:41:43.917393 10679 net.cpp:400] inception_4d/3x3 -> inception_4d/3x3
I0820 09:41:43.920785 10679 net.cpp:142] Setting up inception_4d/3x3
I0820 09:41:43.920816 10679 net.cpp:149] Top shape: 1 288 20 20 (115200)
I0820 09:41:43.920822 10679 net.cpp:157] Memory required for data: 431499496
I0820 09:41:43.920836 10679 layer_factory.hpp:77] Creating layer inception_4d/relu_3x3
I0820 09:41:43.920843 10679 net.cpp:92] Creating Layer inception_4d/relu_3x3
I0820 09:41:43.920857 10679 net.cpp:426] inception_4d/relu_3x3 <- inception_4d/3x3
I0820 09:41:43.920871 10679 net.cpp:387] inception_4d/relu_3x3 -> inception_4d/3x3 (in-place)
I0820 09:41:43.921043 10679 net.cpp:142] Setting up inception_4d/relu_3x3
I0820 09:41:43.921061 10679 net.cpp:149] Top shape: 1 288 20 20 (115200)
I0820 09:41:43.921066 10679 net.cpp:157] Memory required for data: 431960296
I0820 09:41:43.921090 10679 layer_factory.hpp:77] Creating layer inception_4d/5x5_reduce
I0820 09:41:43.921103 10679 net.cpp:92] Creating Layer inception_4d/5x5_reduce
I0820 09:41:43.921109 10679 net.cpp:426] inception_4d/5x5_reduce <- inception_4c/output_inception_4c/output_0_split_2
I0820 09:41:43.921116 10679 net.cpp:400] inception_4d/5x5_reduce -> inception_4d/5x5_reduce
I0820 09:41:43.922332 10679 net.cpp:142] Setting up inception_4d/5x5_reduce
I0820 09:41:43.922361 10679 net.cpp:149] Top shape: 1 32 20 20 (12800)
I0820 09:41:43.922366 10679 net.cpp:157] Memory required for data: 432011496
I0820 09:41:43.922374 10679 layer_factory.hpp:77] Creating layer inception_4d/relu_5x5_reduce
I0820 09:41:43.922397 10679 net.cpp:92] Creating Layer inception_4d/relu_5x5_reduce
I0820 09:41:43.922404 10679 net.cpp:426] inception_4d/relu_5x5_reduce <- inception_4d/5x5_reduce
I0820 09:41:43.922410 10679 net.cpp:387] inception_4d/relu_5x5_reduce -> inception_4d/5x5_reduce (in-place)
I0820 09:41:43.922754 10679 net.cpp:142] Setting up inception_4d/relu_5x5_reduce
I0820 09:41:43.922782 10679 net.cpp:149] Top shape: 1 32 20 20 (12800)
I0820 09:41:43.922788 10679 net.cpp:157] Memory required for data: 432062696
I0820 09:41:43.922793 10679 layer_factory.hpp:77] Creating layer inception_4d/5x5
I0820 09:41:43.922811 10679 net.cpp:92] Creating Layer inception_4d/5x5
I0820 09:41:43.922828 10679 net.cpp:426] inception_4d/5x5 <- inception_4d/5x5_reduce
I0820 09:41:43.922858 10679 net.cpp:400] inception_4d/5x5 -> inception_4d/5x5
I0820 09:41:43.924263 10679 net.cpp:142] Setting up inception_4d/5x5
I0820 09:41:43.924293 10679 net.cpp:149] Top shape: 1 64 20 20 (25600)
I0820 09:41:43.924299 10679 net.cpp:157] Memory required for data: 432165096
I0820 09:41:43.924305 10679 layer_factory.hpp:77] Creating layer inception_4d/relu_5x5
I0820 09:41:43.924312 10679 net.cpp:92] Creating Layer inception_4d/relu_5x5
I0820 09:41:43.924325 10679 net.cpp:426] inception_4d/relu_5x5 <- inception_4d/5x5
I0820 09:41:43.924341 10679 net.cpp:387] inception_4d/relu_5x5 -> inception_4d/5x5 (in-place)
I0820 09:41:43.924530 10679 net.cpp:142] Setting up inception_4d/relu_5x5
I0820 09:41:43.924548 10679 net.cpp:149] Top shape: 1 64 20 20 (25600)
I0820 09:41:43.924553 10679 net.cpp:157] Memory required for data: 432267496
I0820 09:41:43.924558 10679 layer_factory.hpp:77] Creating layer inception_4d/pool
I0820 09:41:43.924574 10679 net.cpp:92] Creating Layer inception_4d/pool
I0820 09:41:43.924579 10679 net.cpp:426] inception_4d/pool <- inception_4c/output_inception_4c/output_0_split_3
I0820 09:41:43.924587 10679 net.cpp:400] inception_4d/pool -> inception_4d/pool
I0820 09:41:43.924655 10679 net.cpp:142] Setting up inception_4d/pool
I0820 09:41:43.924672 10679 net.cpp:149] Top shape: 1 512 20 20 (204800)
I0820 09:41:43.924677 10679 net.cpp:157] Memory required for data: 433086696
I0820 09:41:43.924681 10679 layer_factory.hpp:77] Creating layer inception_4d/pool_proj
I0820 09:41:43.924700 10679 net.cpp:92] Creating Layer inception_4d/pool_proj
I0820 09:41:43.924705 10679 net.cpp:426] inception_4d/pool_proj <- inception_4d/pool
I0820 09:41:43.924721 10679 net.cpp:400] inception_4d/pool_proj -> inception_4d/pool_proj
I0820 09:41:43.926029 10679 net.cpp:142] Setting up inception_4d/pool_proj
I0820 09:41:43.926057 10679 net.cpp:149] Top shape: 1 64 20 20 (25600)
I0820 09:41:43.926062 10679 net.cpp:157] Memory required for data: 433189096
I0820 09:41:43.926077 10679 layer_factory.hpp:77] Creating layer inception_4d/relu_pool_proj
I0820 09:41:43.926084 10679 net.cpp:92] Creating Layer inception_4d/relu_pool_proj
I0820 09:41:43.926090 10679 net.cpp:426] inception_4d/relu_pool_proj <- inception_4d/pool_proj
I0820 09:41:43.926105 10679 net.cpp:387] inception_4d/relu_pool_proj -> inception_4d/pool_proj (in-place)
I0820 09:41:43.926276 10679 net.cpp:142] Setting up inception_4d/relu_pool_proj
I0820 09:41:43.926295 10679 net.cpp:149] Top shape: 1 64 20 20 (25600)
I0820 09:41:43.926300 10679 net.cpp:157] Memory required for data: 433291496
I0820 09:41:43.926304 10679 layer_factory.hpp:77] Creating layer inception_4d/output
I0820 09:41:43.926321 10679 net.cpp:92] Creating Layer inception_4d/output
I0820 09:41:43.926326 10679 net.cpp:426] inception_4d/output <- inception_4d/1x1
I0820 09:41:43.926331 10679 net.cpp:426] inception_4d/output <- inception_4d/3x3
I0820 09:41:43.926337 10679 net.cpp:426] inception_4d/output <- inception_4d/5x5
I0820 09:41:43.926342 10679 net.cpp:426] inception_4d/output <- inception_4d/pool_proj
I0820 09:41:43.926347 10679 net.cpp:400] inception_4d/output -> inception_4d/output
I0820 09:41:43.926395 10679 net.cpp:142] Setting up inception_4d/output
I0820 09:41:43.926403 10679 net.cpp:149] Top shape: 1 528 20 20 (211200)
I0820 09:41:43.926415 10679 net.cpp:157] Memory required for data: 434136296
I0820 09:41:43.926427 10679 layer_factory.hpp:77] Creating layer inception_4d/output_inception_4d/output_0_split
I0820 09:41:43.926434 10679 net.cpp:92] Creating Layer inception_4d/output_inception_4d/output_0_split
I0820 09:41:43.926439 10679 net.cpp:426] inception_4d/output_inception_4d/output_0_split <- inception_4d/output
I0820 09:41:43.926453 10679 net.cpp:400] inception_4d/output_inception_4d/output_0_split -> inception_4d/output_inception_4d/output_0_split_0
I0820 09:41:43.926468 10679 net.cpp:400] inception_4d/output_inception_4d/output_0_split -> inception_4d/output_inception_4d/output_0_split_1
I0820 09:41:43.926487 10679 net.cpp:400] inception_4d/output_inception_4d/output_0_split -> inception_4d/output_inception_4d/output_0_split_2
I0820 09:41:43.926507 10679 net.cpp:400] inception_4d/output_inception_4d/output_0_split -> inception_4d/output_inception_4d/output_0_split_3
I0820 09:41:43.926610 10679 net.cpp:142] Setting up inception_4d/output_inception_4d/output_0_split
I0820 09:41:43.926618 10679 net.cpp:149] Top shape: 1 528 20 20 (211200)
I0820 09:41:43.926631 10679 net.cpp:149] Top shape: 1 528 20 20 (211200)
I0820 09:41:43.926656 10679 net.cpp:149] Top shape: 1 528 20 20 (211200)
I0820 09:41:43.926661 10679 net.cpp:149] Top shape: 1 528 20 20 (211200)
I0820 09:41:43.926666 10679 net.cpp:157] Memory required for data: 437515496
I0820 09:41:43.926671 10679 layer_factory.hpp:77] Creating layer inception_4e/1x1
I0820 09:41:43.926681 10679 net.cpp:92] Creating Layer inception_4e/1x1
I0820 09:41:43.926687 10679 net.cpp:426] inception_4e/1x1 <- inception_4d/output_inception_4d/output_0_split_0
I0820 09:41:43.926693 10679 net.cpp:400] inception_4e/1x1 -> inception_4e/1x1
I0820 09:41:43.929036 10679 net.cpp:142] Setting up inception_4e/1x1
I0820 09:41:43.929066 10679 net.cpp:149] Top shape: 1 256 20 20 (102400)
I0820 09:41:43.929072 10679 net.cpp:157] Memory required for data: 437925096
I0820 09:41:43.929087 10679 layer_factory.hpp:77] Creating layer inception_4e/relu_1x1
I0820 09:41:43.929095 10679 net.cpp:92] Creating Layer inception_4e/relu_1x1
I0820 09:41:43.929107 10679 net.cpp:426] inception_4e/relu_1x1 <- inception_4e/1x1
I0820 09:41:43.929123 10679 net.cpp:387] inception_4e/relu_1x1 -> inception_4e/1x1 (in-place)
I0820 09:41:43.929458 10679 net.cpp:142] Setting up inception_4e/relu_1x1
I0820 09:41:43.929479 10679 net.cpp:149] Top shape: 1 256 20 20 (102400)
I0820 09:41:43.929484 10679 net.cpp:157] Memory required for data: 438334696
I0820 09:41:43.929489 10679 layer_factory.hpp:77] Creating layer inception_4e/3x3_reduce
I0820 09:41:43.929507 10679 net.cpp:92] Creating Layer inception_4e/3x3_reduce
I0820 09:41:43.929513 10679 net.cpp:426] inception_4e/3x3_reduce <- inception_4d/output_inception_4d/output_0_split_1
I0820 09:41:43.929529 10679 net.cpp:400] inception_4e/3x3_reduce -> inception_4e/3x3_reduce
I0820 09:41:43.931079 10679 net.cpp:142] Setting up inception_4e/3x3_reduce
I0820 09:41:43.931121 10679 net.cpp:149] Top shape: 1 160 20 20 (64000)
I0820 09:41:43.931128 10679 net.cpp:157] Memory required for data: 438590696
I0820 09:41:43.931134 10679 layer_factory.hpp:77] Creating layer inception_4e/relu_3x3_reduce
I0820 09:41:43.931143 10679 net.cpp:92] Creating Layer inception_4e/relu_3x3_reduce
I0820 09:41:43.931149 10679 net.cpp:426] inception_4e/relu_3x3_reduce <- inception_4e/3x3_reduce
I0820 09:41:43.931154 10679 net.cpp:387] inception_4e/relu_3x3_reduce -> inception_4e/3x3_reduce (in-place)
I0820 09:41:43.931336 10679 net.cpp:142] Setting up inception_4e/relu_3x3_reduce
I0820 09:41:43.931354 10679 net.cpp:149] Top shape: 1 160 20 20 (64000)
I0820 09:41:43.931360 10679 net.cpp:157] Memory required for data: 438846696
I0820 09:41:43.931365 10679 layer_factory.hpp:77] Creating layer inception_4e/3x3
I0820 09:41:43.931382 10679 net.cpp:92] Creating Layer inception_4e/3x3
I0820 09:41:43.931388 10679 net.cpp:426] inception_4e/3x3 <- inception_4e/3x3_reduce
I0820 09:41:43.931404 10679 net.cpp:400] inception_4e/3x3 -> inception_4e/3x3
I0820 09:41:43.935448 10679 net.cpp:142] Setting up inception_4e/3x3
I0820 09:41:43.935472 10679 net.cpp:149] Top shape: 1 320 20 20 (128000)
I0820 09:41:43.935477 10679 net.cpp:157] Memory required for data: 439358696
I0820 09:41:43.935492 10679 layer_factory.hpp:77] Creating layer inception_4e/relu_3x3
I0820 09:41:43.935500 10679 net.cpp:92] Creating Layer inception_4e/relu_3x3
I0820 09:41:43.935513 10679 net.cpp:426] inception_4e/relu_3x3 <- inception_4e/3x3
I0820 09:41:43.935528 10679 net.cpp:387] inception_4e/relu_3x3 -> inception_4e/3x3 (in-place)
I0820 09:41:43.935719 10679 net.cpp:142] Setting up inception_4e/relu_3x3
I0820 09:41:43.935737 10679 net.cpp:149] Top shape: 1 320 20 20 (128000)
I0820 09:41:43.935753 10679 net.cpp:157] Memory required for data: 439870696
I0820 09:41:43.935773 10679 layer_factory.hpp:77] Creating layer inception_4e/5x5_reduce
I0820 09:41:43.935792 10679 net.cpp:92] Creating Layer inception_4e/5x5_reduce
I0820 09:41:43.935798 10679 net.cpp:426] inception_4e/5x5_reduce <- inception_4d/output_inception_4d/output_0_split_2
I0820 09:41:43.935814 10679 net.cpp:400] inception_4e/5x5_reduce -> inception_4e/5x5_reduce
I0820 09:41:43.937068 10679 net.cpp:142] Setting up inception_4e/5x5_reduce
I0820 09:41:43.937090 10679 net.cpp:149] Top shape: 1 32 20 20 (12800)
I0820 09:41:43.937096 10679 net.cpp:157] Memory required for data: 439921896
I0820 09:41:43.937103 10679 layer_factory.hpp:77] Creating layer inception_4e/relu_5x5_reduce
I0820 09:41:43.937127 10679 net.cpp:92] Creating Layer inception_4e/relu_5x5_reduce
I0820 09:41:43.937134 10679 net.cpp:426] inception_4e/relu_5x5_reduce <- inception_4e/5x5_reduce
I0820 09:41:43.937139 10679 net.cpp:387] inception_4e/relu_5x5_reduce -> inception_4e/5x5_reduce (in-place)
I0820 09:41:43.937459 10679 net.cpp:142] Setting up inception_4e/relu_5x5_reduce
I0820 09:41:43.937480 10679 net.cpp:149] Top shape: 1 32 20 20 (12800)
I0820 09:41:43.937485 10679 net.cpp:157] Memory required for data: 439973096
I0820 09:41:43.937490 10679 layer_factory.hpp:77] Creating layer inception_4e/5x5
I0820 09:41:43.937510 10679 net.cpp:92] Creating Layer inception_4e/5x5
I0820 09:41:43.937515 10679 net.cpp:426] inception_4e/5x5 <- inception_4e/5x5_reduce
I0820 09:41:43.937531 10679 net.cpp:400] inception_4e/5x5 -> inception_4e/5x5
I0820 09:41:43.939630 10679 net.cpp:142] Setting up inception_4e/5x5
I0820 09:41:43.939653 10679 net.cpp:149] Top shape: 1 128 20 20 (51200)
I0820 09:41:43.939658 10679 net.cpp:157] Memory required for data: 440177896
I0820 09:41:43.939666 10679 layer_factory.hpp:77] Creating layer inception_4e/relu_5x5
I0820 09:41:43.939689 10679 net.cpp:92] Creating Layer inception_4e/relu_5x5
I0820 09:41:43.939694 10679 net.cpp:426] inception_4e/relu_5x5 <- inception_4e/5x5
I0820 09:41:43.939702 10679 net.cpp:387] inception_4e/relu_5x5 -> inception_4e/5x5 (in-place)
I0820 09:41:43.939877 10679 net.cpp:142] Setting up inception_4e/relu_5x5
I0820 09:41:43.939895 10679 net.cpp:149] Top shape: 1 128 20 20 (51200)
I0820 09:41:43.939900 10679 net.cpp:157] Memory required for data: 440382696
I0820 09:41:43.939905 10679 layer_factory.hpp:77] Creating layer inception_4e/pool
I0820 09:41:43.939930 10679 net.cpp:92] Creating Layer inception_4e/pool
I0820 09:41:43.939936 10679 net.cpp:426] inception_4e/pool <- inception_4d/output_inception_4d/output_0_split_3
I0820 09:41:43.939944 10679 net.cpp:400] inception_4e/pool -> inception_4e/pool
I0820 09:41:43.940013 10679 net.cpp:142] Setting up inception_4e/pool
I0820 09:41:43.940042 10679 net.cpp:149] Top shape: 1 528 20 20 (211200)
I0820 09:41:43.940047 10679 net.cpp:157] Memory required for data: 441227496
I0820 09:41:43.940052 10679 layer_factory.hpp:77] Creating layer inception_4e/pool_proj
I0820 09:41:43.940069 10679 net.cpp:92] Creating Layer inception_4e/pool_proj
I0820 09:41:43.940074 10679 net.cpp:426] inception_4e/pool_proj <- inception_4e/pool
I0820 09:41:43.940090 10679 net.cpp:400] inception_4e/pool_proj -> inception_4e/pool_proj
I0820 09:41:43.941591 10679 net.cpp:142] Setting up inception_4e/pool_proj
I0820 09:41:43.941613 10679 net.cpp:149] Top shape: 1 128 20 20 (51200)
I0820 09:41:43.941618 10679 net.cpp:157] Memory required for data: 441432296
I0820 09:41:43.941633 10679 layer_factory.hpp:77] Creating layer inception_4e/relu_pool_proj
I0820 09:41:43.941649 10679 net.cpp:92] Creating Layer inception_4e/relu_pool_proj
I0820 09:41:43.941655 10679 net.cpp:426] inception_4e/relu_pool_proj <- inception_4e/pool_proj
I0820 09:41:43.941671 10679 net.cpp:387] inception_4e/relu_pool_proj -> inception_4e/pool_proj (in-place)
I0820 09:41:43.941844 10679 net.cpp:142] Setting up inception_4e/relu_pool_proj
I0820 09:41:43.941854 10679 net.cpp:149] Top shape: 1 128 20 20 (51200)
I0820 09:41:43.941870 10679 net.cpp:157] Memory required for data: 441637096
I0820 09:41:43.941875 10679 layer_factory.hpp:77] Creating layer inception_4e/output
I0820 09:41:43.941895 10679 net.cpp:92] Creating Layer inception_4e/output
I0820 09:41:43.941900 10679 net.cpp:426] inception_4e/output <- inception_4e/1x1
I0820 09:41:43.941905 10679 net.cpp:426] inception_4e/output <- inception_4e/3x3
I0820 09:41:43.941910 10679 net.cpp:426] inception_4e/output <- inception_4e/5x5
I0820 09:41:43.941915 10679 net.cpp:426] inception_4e/output <- inception_4e/pool_proj
I0820 09:41:43.941922 10679 net.cpp:400] inception_4e/output -> inception_4e/output
I0820 09:41:43.941977 10679 net.cpp:142] Setting up inception_4e/output
I0820 09:41:43.941987 10679 net.cpp:149] Top shape: 1 832 20 20 (332800)
I0820 09:41:43.941990 10679 net.cpp:157] Memory required for data: 442968296
I0820 09:41:43.941995 10679 layer_factory.hpp:77] Creating layer conv6_1
I0820 09:41:43.942013 10679 net.cpp:92] Creating Layer conv6_1
I0820 09:41:43.942018 10679 net.cpp:426] conv6_1 <- inception_4e/output
I0820 09:41:43.942036 10679 net.cpp:400] conv6_1 -> conv6_1
I0820 09:41:43.943234 10679 net.cpp:142] Setting up conv6_1
I0820 09:41:43.943264 10679 net.cpp:149] Top shape: 1 1 20 20 (400)
I0820 09:41:43.943269 10679 net.cpp:157] Memory required for data: 442969896
I0820 09:41:43.943277 10679 layer_factory.hpp:77] Creating layer relu_conv6
I0820 09:41:43.943300 10679 net.cpp:92] Creating Layer relu_conv6
I0820 09:41:43.943306 10679 net.cpp:426] relu_conv6 <- conv6_1
I0820 09:41:43.943312 10679 net.cpp:387] relu_conv6 -> conv6_1 (in-place)
I0820 09:41:43.943636 10679 net.cpp:142] Setting up relu_conv6
I0820 09:41:43.943657 10679 net.cpp:149] Top shape: 1 1 20 20 (400)
I0820 09:41:43.943670 10679 net.cpp:157] Memory required for data: 442971496
I0820 09:41:43.943675 10679 layer_factory.hpp:77] Creating layer tile
I0820 09:41:43.943692 10679 net.cpp:92] Creating Layer tile
I0820 09:41:43.943697 10679 net.cpp:426] tile <- conv6_1
I0820 09:41:43.943704 10679 net.cpp:400] tile -> tiled_highfeatures
I0820 09:41:43.943773 10679 net.cpp:142] Setting up tile
I0820 09:41:43.943789 10679 net.cpp:149] Top shape: 1 324 20 20 (129600)
I0820 09:41:43.943794 10679 net.cpp:157] Memory required for data: 443489896
I0820 09:41:43.943799 10679 layer_factory.hpp:77] Creating layer reshape
I0820 09:41:43.943806 10679 net.cpp:92] Creating Layer reshape
I0820 09:41:43.943811 10679 net.cpp:426] reshape <- tiled_highfeatures
I0820 09:41:43.943827 10679 net.cpp:400] reshape -> reshaped_highfeatures
I0820 09:41:43.943876 10679 net.cpp:142] Setting up reshape
I0820 09:41:43.943883 10679 net.cpp:149] Top shape: 324 1 20 20 (129600)
I0820 09:41:43.943895 10679 net.cpp:157] Memory required for data: 444008296
I0820 09:41:43.943899 10679 layer_factory.hpp:77] Creating layer concat
I0820 09:41:43.943907 10679 net.cpp:92] Creating Layer concat
I0820 09:41:43.943919 10679 net.cpp:426] concat <- region_conv3
I0820 09:41:43.943924 10679 net.cpp:426] concat <- reshaped_highfeatures
I0820 09:41:43.943930 10679 net.cpp:400] concat -> concat_features
I0820 09:41:43.943974 10679 net.cpp:142] Setting up concat
I0820 09:41:43.943982 10679 net.cpp:149] Top shape: 324 4 20 20 (518400)
I0820 09:41:43.943995 10679 net.cpp:157] Memory required for data: 446081896
I0820 09:41:43.944000 10679 layer_factory.hpp:77] Creating layer compression1
I0820 09:41:43.944016 10679 net.cpp:92] Creating Layer compression1
I0820 09:41:43.944020 10679 net.cpp:426] compression1 <- concat_features
I0820 09:41:43.944036 10679 net.cpp:400] compression1 -> comp1
I0820 09:41:43.945230 10679 net.cpp:142] Setting up compression1
I0820 09:41:43.945271 10679 net.cpp:149] Top shape: 324 100 20 20 (12960000)
I0820 09:41:43.945277 10679 net.cpp:157] Memory required for data: 497921896
I0820 09:41:43.945284 10679 layer_factory.hpp:77] Creating layer comp1_bn
I0820 09:41:43.945302 10679 net.cpp:92] Creating Layer comp1_bn
I0820 09:41:43.945308 10679 net.cpp:426] comp1_bn <- comp1
I0820 09:41:43.945315 10679 net.cpp:387] comp1_bn -> comp1 (in-place)
I0820 09:41:43.945614 10679 net.cpp:142] Setting up comp1_bn
I0820 09:41:43.945624 10679 net.cpp:149] Top shape: 324 100 20 20 (12960000)
I0820 09:41:43.945637 10679 net.cpp:157] Memory required for data: 549761896
I0820 09:41:43.945646 10679 layer_factory.hpp:77] Creating layer relu_comp1
I0820 09:41:43.945652 10679 net.cpp:92] Creating Layer relu_comp1
I0820 09:41:43.945657 10679 net.cpp:426] relu_comp1 <- comp1
I0820 09:41:43.945663 10679 net.cpp:387] relu_comp1 -> comp1 (in-place)
I0820 09:41:43.945842 10679 net.cpp:142] Setting up relu_comp1
I0820 09:41:43.945860 10679 net.cpp:149] Top shape: 324 100 20 20 (12960000)
I0820 09:41:43.945865 10679 net.cpp:157] Memory required for data: 601601896
I0820 09:41:43.945870 10679 layer_factory.hpp:77] Creating layer compression2
I0820 09:41:43.945889 10679 net.cpp:92] Creating Layer compression2
I0820 09:41:43.945895 10679 net.cpp:426] compression2 <- comp1
I0820 09:41:43.945901 10679 net.cpp:400] compression2 -> comp2
I0820 09:41:43.947643 10679 net.cpp:142] Setting up compression2
I0820 09:41:43.947671 10679 net.cpp:149] Top shape: 324 100 20 20 (12960000)
I0820 09:41:43.947677 10679 net.cpp:157] Memory required for data: 653441896
I0820 09:41:43.947691 10679 layer_factory.hpp:77] Creating layer comp2_bn
I0820 09:41:43.947708 10679 net.cpp:92] Creating Layer comp2_bn
I0820 09:41:43.947713 10679 net.cpp:426] comp2_bn <- comp2
I0820 09:41:43.947720 10679 net.cpp:387] comp2_bn -> comp2 (in-place)
I0820 09:41:43.948029 10679 net.cpp:142] Setting up comp2_bn
I0820 09:41:43.948045 10679 net.cpp:149] Top shape: 324 100 20 20 (12960000)
I0820 09:41:43.948050 10679 net.cpp:157] Memory required for data: 705281896
I0820 09:41:43.948066 10679 layer_factory.hpp:77] Creating layer relu_comp2
I0820 09:41:43.948073 10679 net.cpp:92] Creating Layer relu_comp2
I0820 09:41:43.948078 10679 net.cpp:426] relu_comp2 <- comp2
I0820 09:41:43.948086 10679 net.cpp:387] relu_comp2 -> comp2 (in-place)
I0820 09:41:43.948284 10679 net.cpp:142] Setting up relu_comp2
I0820 09:41:43.948304 10679 net.cpp:149] Top shape: 324 100 20 20 (12960000)
I0820 09:41:43.948309 10679 net.cpp:157] Memory required for data: 757121896
I0820 09:41:43.948314 10679 layer_factory.hpp:77] Creating layer compression3
I0820 09:41:43.948331 10679 net.cpp:92] Creating Layer compression3
I0820 09:41:43.948338 10679 net.cpp:426] compression3 <- comp2
I0820 09:41:43.948343 10679 net.cpp:400] compression3 -> comp3
I0820 09:41:43.949548 10679 net.cpp:142] Setting up compression3
I0820 09:41:43.949575 10679 net.cpp:149] Top shape: 324 1 20 20 (129600)
I0820 09:41:43.949581 10679 net.cpp:157] Memory required for data: 757640296
I0820 09:41:43.949589 10679 layer_factory.hpp:77] Creating layer comp3_bn
I0820 09:41:43.949604 10679 net.cpp:92] Creating Layer comp3_bn
I0820 09:41:43.949610 10679 net.cpp:426] comp3_bn <- comp3
I0820 09:41:43.949625 10679 net.cpp:387] comp3_bn -> comp3 (in-place)
I0820 09:41:43.950335 10679 net.cpp:142] Setting up comp3_bn
I0820 09:41:43.950356 10679 net.cpp:149] Top shape: 324 1 20 20 (129600)
I0820 09:41:43.950361 10679 net.cpp:157] Memory required for data: 758158696
I0820 09:41:43.950377 10679 layer_factory.hpp:77] Creating layer relu_comp3
I0820 09:41:43.950403 10679 net.cpp:92] Creating Layer relu_comp3
I0820 09:41:43.950408 10679 net.cpp:426] relu_comp3 <- comp3
I0820 09:41:43.950414 10679 net.cpp:387] relu_comp3 -> comp3 (in-place)
I0820 09:41:43.950765 10679 net.cpp:142] Setting up relu_comp3
I0820 09:41:43.950794 10679 net.cpp:149] Top shape: 324 1 20 20 (129600)
I0820 09:41:43.950799 10679 net.cpp:157] Memory required for data: 758677096
I0820 09:41:43.950804 10679 layer_factory.hpp:77] Creating layer concat_ip3
I0820 09:41:43.950824 10679 net.cpp:92] Creating Layer concat_ip3
I0820 09:41:43.950829 10679 net.cpp:426] concat_ip3 <- comp3
I0820 09:41:43.950835 10679 net.cpp:400] concat_ip3 -> concat_ip3
I0820 09:41:43.950963 10679 net.cpp:142] Setting up concat_ip3
I0820 09:41:43.950980 10679 net.cpp:149] Top shape: 324 1 (324)
I0820 09:41:43.950985 10679 net.cpp:157] Memory required for data: 758678392
I0820 09:41:43.951004 10679 layer_factory.hpp:77] Creating layer loss
I0820 09:41:43.951020 10679 net.cpp:92] Creating Layer loss
I0820 09:41:43.951038 10679 net.cpp:426] loss <- concat_ip3
I0820 09:41:43.951045 10679 net.cpp:400] loss -> concat_sigmoid
I0820 09:41:43.951237 10679 net.cpp:142] Setting up loss
I0820 09:41:43.951256 10679 net.cpp:149] Top shape: 324 1 (324)
I0820 09:41:43.951261 10679 net.cpp:157] Memory required for data: 758679688
I0820 09:41:43.951266 10679 layer_factory.hpp:77] Creating layer loss
I0820 09:41:43.951272 10679 net.cpp:92] Creating Layer loss
I0820 09:41:43.951285 10679 net.cpp:426] loss <- concat_sigmoid
I0820 09:41:43.951290 10679 net.cpp:426] loss <- region_labels
I0820 09:41:43.951306 10679 net.cpp:400] loss -> euclidean_loss
…
